data/models/best_model.pth (torch, 511074 bytes, 87 tensors)

node_embedding.weight f4 [64, 160]
00000000: 0062 e23d ac62 863d a337 2bbe 54ae b93c
00000010: 8918 0a3e 9da6 3a3d b8e3 c3bd 1601 813d
00000020: e90c 803e ba8f 6dbd 4590 97bd 8115 323e
00000030: e361 17be d73c 5abb 6e0c 863e a803 91bc
00000040: 61a1 3f3d c973 3f3c 237e 5cbd 7dee 843e
00000050: c831 15bd 52a0 593d 868b 1c3d 637d b0bd
00000060: f352 cfbd 60e8 93bd 4526 ddbc 6738 41be
00000070: 8371 843c 0f90 7cbe 9d38 923d 3d55 83bd
00000080: 1bc7 4d3d e0a4 0bbd 8015 07be 541a 483d
00000090: 60de 493c e8ef fe3d 360b fa3d 35c3 5cbe
000000a0: db7a 0ebc 2913 d53b eb47 083d 2188 203c
000000b0: f54d ed3c bfc5 24be 292b 10be 9fb4 79bd
000000c0: b688 aa3c 393b d9bb 6e88 c7be a8b4 273b
000000d0: 9eb7 8dbe 31da 843d 633e a7bd 7a7b fabd
000000e0: 9837 4cbd 4ea0 56be 9830 2fbe 70c4 38be
000000f0: 231c a33b e30c 0dbe 0ab3 c73c 4eb1 43bd
00000100: 1c72 c63c 3b9e d6bc 2349 863d 56ed 3fbd
00000110: bb1f 41bd b722 41bd 9772 5cbe 2dd3 d73c
00000120: f3cb 9b3d f465 57bd 4c04 e4bd c657 7dbd
00000130: 9034 77be 3993 e2bd fbe6 e73c 9df3 1abe
00000140: 393a 27bd cf6e 3bbe ce1c 9bbc 6de3 02bd
00000150: 4b88 443d 1faf 99bc 033d 393d 7b98 7bbd
00000160: 0f6a 23bd d072 c53c 31ea 883c bd1e a5bc
00000170: 7f04 413d 4a22 5c3d d9d2 6abd 2fe0 2cbd
00000180: e940 943d 6d88 dabc d798 e5bc 73a9 9cbd
00000190: c470 39bd 0ec8 a13c 77f7 2abc ec0d 6bbd
000001a0: d20f f33a 8d31 5dbd dc5c 89bd 6650 32bd
000001b0: 52b4 8dbd cf2f 4ebd 65d8 a13d d4a4 743c
000001c0: 2993 c73c 7702 97bd b7ac 54bd a391 d7bc
000001d0: eb8a 4a3c 8377 8ebd 530d 59bd 12ee 3abd
000001e0: cb28 063d e54a 99bb 1701 11be 9d6d 5bbd
000001f0: 3f44 5ebd 62ea 3cbd 01af ddbc 2f95 7fbd
00000200: 68c1 873d 3b88 80bc 3f4e 8b3d 92ca c93c
00000210: 8b3e 91bd 1b71 13be 2a57 6e3c 0922 e03d
00000220: e3f6 063e 9f6c 2cbe ca47 a5bd 6251 1ebe
00000230: bcf2 7d3d 0c94 f9bd 4e0c 653d 02b3 6dbd
00000240: 1f82 d23d 6f2a 863c 7cfe 8ebc 005d 5d3d
00000250: f103 97bd 1dd9 adbd 7280 843d 8e0f b2bd
00000260: 5279 1fbd f6c9 05be d279 933d 73aa 6dbd
00000270: 8510 2d3d b99a e33c ab88 0c3c b1f6 d1bc
00000280: 2b44 3c3e 6451 8e3c cf38 1abe dc9e 373d
00000290: afc8 a73d 32f3 133c 9f24 e5bd 87c1 403d
000002a0: 9e49 7f3d 1229 33bd 45c9 843e 9062 663d
000002b0: db19 8b3e 1a45 133e 4080 8bbc 47be ddbc
000002c0: ffa6 e8bd adf7 e63c 241a 303e b5ae b4bc
000002d0: de69 963c 4758 1a3e c6b6 16be 81a9 8fbc
000002e0: b0c9 94bd ba93 a83d f45f ff3d a15d 53be
000002f0: a426 d53d b282 06be 87d0 64bc 8abd 34bd
00000300: eb96 63bd 0b8c 1e3e 6f7a aabd da00 91bc
00000310: 2035 973a f6ac b93d 1f2e dcbd 97c2 9b3d
00000320: 623b c0bb 4818 423c 1859 883d 6b8c b6bd
00000330: a8c5 203e 179f 9a3e 92af 243e 52a7 21be
00000340: 5b50 ddbd 5a6c 2d3e 1175 313e fdef 493e
00000350: 4e19 2fbc 45bb 42bd be62 04be 4a0a bdbd
00000360: 5a05 10be f535 b43d e36e 893e bf05 503e
00000370: b097 51bd 23dd 92bd 823d 13bd 86d7 e83d
00000380: 4011 a1bd d832 0a3e cc55 753d 7a07 ec3c
00000390: 16ca 61bd 48cb 9fbd 0e13 c63d 7878 713d
000003a0: 6e77 1b3d 588d 7cbd 99e3 aebd 45e9 a33c
000003b0: b04d c53e 4852 8e3c 03b8 8abd 3fb3 2dbe
000003c0: f78e 043d 8199 66bd 9737 ff3d c85b 3abd
000003d0: 4d07 6cbc f3e9 63bd 5696 53bd ced3 d63c
000003e0: 8179 c0bc 07e8 473d 4ec4 cfbc ae8a 6dbd
000003f0: 2e89 64bc 35f8 1cbd 6823 c6bc e422 9abd
0.11053848 0.06561789 -0.16720442 0.022666134 0.13485922 0.04556905 -0.09564918 0.06299035
0.2500985 -0.057998396 -0.07400564 0.17391016 -0.14783435 -0.0033300424 0.26181358 -0.017701939
0.046784762 0.01168532 -0.05383123 0.25963202 -0.03642443 0.05313141 0.038218997 -0.086176656
-0.10123243 -0.072220564 -0.026995787 -0.18869172 0.016167408 -0.24664329 0.071397044 -0.06412742
0.05023871 -0.034092784 -0.13191795 0.048853233 0.012321085 0.12448102 0.122091696 -0.2155884
-0.008696283 0.006502528 0.03327171 0.009798081 0.028967837 -0.16091059 -0.14078964 -0.06096327
0.020817142 -0.0066293743 -0.38971275 0.0025589857 -0.2767915 0.06486929 -0.08166196 -0.122305825
-0.049857706 -0.20959589 -0.17108381 -0.18043685 0.0049777194 -0.13774447 0.024377365 -0.047776513
0.024224333 -0.026198497 0.065569185 -0.0468572 -0.0471494 -0.047152247 -0.21528088 0.026345814
0.076072596 -0.052587464 -0.11133632 -0.061851285 -0.24141145 -0.11063237 0.028308382 -0.15131994
-0.04082701 -0.18303989 -0.018934634 -0.03195517 0.04798154 -0.018760262 0.0452242 -0.061424714
-0.039896067 0.024102598 0.016713234 -0.020156259 0.04712343 0.053743638 -0.057329986 -0.042205986
0.07238943 -0.026676381 -0.028026981 -0.076495074 -0.045273557 0.019748714 -0.010434977 -0.057386324
0.0018544144 -0.054002333 -0.06707165 -0.043533705 -0.06919159 -0.050338563 0.07902602 0.014931876
0.024362164 -0.07373517 -0.051922526 -0.026314562 0.012362222 -0.06956389 -0.052991223 -0.045637198
0.032753747 -0.0046781176 -0.14160572 -0.053571332 -0.054264303 -0.046121962 -0.027060987 -0.062398132
0.06628686 -0.01568996 0.06802034 0.024632726 -0.07092007 -0.14398615 0.014547149 0.10943992
0.13180117 -0.1683831 -0.08070333 -0.15460733 0.061999068 -0.12186441 0.055919938 -0.058032043
0.10278725 0.016377656 -0.017455332 0.05404377 -0.07373799 -0.08488677 0.064698115 -0.08694373
-0.03893406 -0.13065323 0.0720097 -0.05802388 0.042252082 0.027783738 0.008577506 -0.025630327
0.18385379 0.017372794 -0.15060733 0.044829234 0.08192574 0.00903015 -0.111886255 0.047059562
0.062326066 -0.04374034 0.25934806 0.05624634 0.27168164 0.14381829 -0.017028928 -0.02706827
-0.11359977 0.028194273 0.17197472 -0.022055963 0.018361028 0.15072738 -0.1471816 -0.01753688
-0.07265031 0.082313016 0.124694735 -0.20641185 0.10407761 -0.13135794 -0.013965732 -0.04412607
-0.05556385 0.1548311 -0.083241336 -0.017700601 0.0011536218 0.09066193 -0.107509844 0.076054744
-0.005866454 0.011846609 0.06657618 -0.08913501 0.157004 0.301995 0.160826 -0.15786484
-0.10806342 0.16935864 0.17329814 0.19720455 -0.010687185 -0.047541875 -0.12928292 -0.09230478
-0.14064541 0.08799354 0.26842412 0.20314692 -0.05117005 -0.07171085 -0.03594733 0.11369233
-0.07864618 0.13495958 0.059896275 0.028812159 -0.055124365 -0.07802445 0.09671603 0.05895278
0.037955694 -0.061658233 -0.085395046 0.020008693 0.38535833 0.01737322 -0.06773379 -0.16962908
0.032362904 -0.056298736 0.12461775 -0.045497686 -0.0144060375 -0.055643033 -0.051657043 0.026224043
-0.023495438 0.048805263 -0.02536216 -0.057993583 -0.013948722 -0.038322646 -0.024186805 -0.07526186

node_embedding.bias f4 [64]
00000000: 116b d2bd 4ba7 5ebc b541 013e 5868 cbbc
00000010: d559 fe3b 864e 80bc 22b8 86bd adb7 b9bd
00000020: c7e4 4bbd fe5f 26be a80a acbd 88b8 26be
00000030: 570d dd3c 0bd0 c73d a64f 4a3e 7d32 39bd
00000040: e269 b43b f8f3 0a3d baf4 51bc 2e7e f63d
00000050: d2b5 f8bd 1195 a9bd db19 8b3d 9ba7 4bbd
00000060: 628a 3cbd 6cdf 913c 4f6a b8bd 1080 df3d
00000070: dcf1 073d 795a 8dbc 9a86 05bd 1001 5dbc
00000080: 9449 9ebd cdad 033c ac80 9dbd 1885 853d
00000090: a124 3d3d 8fa5 813d b372 abbb c2bb 283e
000000a0: ef39 77bd 580b 06bd e9e0 8dbd baac b9bc
000000b0: dcf7 2e3e e021 13bd 6bbe a03d 4791 f6bd
000000c0: dddd 85bd 521d 7abc 2774 a23d 26dc 263d
000000d0: 1148 bf3c 608e 243c 2278 e33c 9068 843c
000000e0: d88d 58bd b21b 133d a64a dcbd 641c ec3d
000000f0: 48c1 95bd 937e aabd a9cd 333d 0dbb 853d
-0.102743275 -0.01358969 0.12622721 -0.024830028 0.0077621737 -0.015662443 -0.06578089 -0.090682365
-0.049778726 -0.16247556 -0.0840047 -0.1628133 0.0269839 0.09756478 0.19756946 -0.045214165
0.0055057863 0.033924073 -0.012814695 0.120357856 -0.121440545 -0.08280385 0.06792041 -0.049720388
-0.04603041 0.017806731 -0.09004652 0.10913098 0.03318964 -0.017255055 -0.03259907 -0.013489023
-0.07728878 0.008037043 -0.07690558 0.06519526 0.04617751 0.06330406 -0.005232179 0.16477874
-0.060357984 -0.032725662 -0.06927664 -0.02266537 0.17086738 -0.035920978 0.07848819 -0.12039428
-0.06536458 -0.01526578 0.079323106 0.040737294 0.023349794 0.0100437105 0.027767245 0.01616314
-0.052869648 0.035915084 -0.107564256 0.115288526 -0.07312256 -0.08324923 0.043897305 0.06529818

gnn_layers.0.node_mlp.0.weight f4 [64, 64]
00000000: f869 233d a08f 2fbc 9c50 263d ca28 fcbd
00000010: c21c afbd 784a 57bd 04be e7bd e456 c1bd
00000020: 22e2 c4bd 8cfb 123d 501d 1b3d c04e 45bb
00000030: 00ae ecbc c0e0 5c3b 14b0 9a3d 2ac3 c0bd
00000040: 32e0 b53d f0ae 5e3d 70b9 32bd 2c9d b33d
00000050: 0020 d9b8 b0a2 6abd deb3 e63d b053 173d
00000060: d831 c13d 40f0 0abd 4c5e dbbd cc4b cd3d
00000070: e0f4 ec3b 3027 733d a8b5 04bd e829 723d
00000080: e246 cabd a07b 903b 7861 c23d 087c 09bd
00000090: 86e0 db3d 9c49 3c3d 3c65 7c3d 3cf5 fc3d
000000a0: 6026 f9bc b864 eebc 30fb a03d aa8d 81bd
000000b0: eac0 bcbd b2ec a63d 385d dfbd 047c 72bd
000000c0: 781f f83c 00cb 963c 4a32 9bbd e087 01bd
000000d0: 1654 a43d 78e1 a5bd 6ad7 923d d050 5bbc
000000e0: 2c45 37bd cadd f3bd 244b 06bd c480 d23d
000000f0: 783e 8cbd 3e2c cbbd 30c9 1fbc c279 b53d
00000100: d0e2 0abd ccf4 fa3d d294 f63d d88a ea3d
00000110: 226d 92bd 8e3b b6bd 66eb efbd b01d c7bc
00000120: aeb7 a6bd 9486 6e3d 30b4 383c 6809 cb3d
00000130: c07b edbd 741f d7bd 488e bebc a0f1 063d
00000140: 8e89 d73d c039 2bbc fec5 da3d 389b 0abd
00000150: b88d 90bc 5825 45bd 209a 59bd c8f5 41bd
00000160: b64a ddbd 2067 7bbc f0a3 2cbd 48be a5bd
00000170: 5ce3 bdbd 96de f6bd 7076 e5bc ee6b d0bd
00000180: 162b e63d 2c70 09bd 0ca0 093d 4489 b7bd
00000190: 10f9 503c 6299 f0bd 9c7f 663d 8ccc 713d
000001a0: d0c5 f8bd 5843 5f3d 585e 823c 3ee3 9fbd
000001b0: 7469 6abd c8a0 fb3d 7c28 85bd 10fc df3d
000001c0: e011 ce3c d094 6a3d deda 80bd a86e 263d
000001d0: 107d dc3c fa2b cc3d 8427 fdbd 2026 3abd
000001e0: 80fd 4b3b 3ebe b7bd 4083 ae3c 9a0f a53d
000001f0: 0646 9a3d 4801 84bd a0f6 4e3d 0446 babd
00000200: 5823 9f3d 9e3c d1bd 6416 e8bd 6cb0 313d
00000210: 7055 41bc 786a fc3c 9634 ee3d e63c f53d
00000220: 8858 903d 3e39 e8bd b8a8 9dbc 00e0 5f3c
00000230: b446 f9bd be16 d63d b2fd a73d c083 6cbd
00000240: 88b4 d5bc 0c7e 94bd 68ed 443d b89a b03c
00000250: 7881 31bd 5add 883d b85a ddbc 50ef 5b3c
00000260: 4c3f b13d 9c8e 70bd a01b ecbd 7a2b 8a3d
00000270: b64d a7bd 588e 413d aced 19bd 06d9 ab3d
00000280: 00ca 9bbb 181f 69bd 7098 b4bd 8606 ac3d
00000290: 742e a0bd 5823 113d 02c7 c33d a0a3 cdbd
000002a0: 52dc d6bd 70ee 503c 28fc 48bd 06ed bbbd
000002b0: bc47 a93d 2426 eebd 8871 69bd 24a5 d4bd
000002c0: 9c52 073d f0a2 303c c890 553d a85c 563d
000002d0: 009f 01ba 28c1 19bd ae5d e23d 0056 aa3b
000002e0: d8cb f33c 4ecc d2bd 62e7 fabd 2015 7abd
000002f0: 2425 86bd 3057 143d c891 63bd a0e1 553c
00000300: 863b ed3d c408 17bd fcce 023d 80ee c83a
00000310: d677 a83d 74ee 5f3d a04b bebb 8405 8c3d
00000320: 6065 d0bb 8014 aebc ac92 47bd 1ed7 d0bd
00000330: f0d7 d53d 1e3a a2bd 140c f4bd 14a6 65bd
00000340: 80d9 ce3c 50db 39bc d814 693d a8ab 923d
00000350: 6e8e 963d 7aca d6bd 78bd 503d ac70 7d3d
00000360: c404 8ebd 00b9 1e3a b07a 993c a867 803c
00000370: 685f 893d a658 d93d 9ce1 f53d b044 e53c
00000380: 36b5 953d 3ce8 5a3d b87e 8abd 2837 ab3d
00000390: 2083 11bc 40f2 503d 1ee8 a9bd 48d0 cc3d
000003a0: 608a e43c 900c e83c c6bc e3bd 40fd 31bc
000003b0: bc09 33bd 9ab1 f13d 865f eabd e8b2 fcbc
000003c0: 74f2 7dbd 5a94 b9bd ccec 443d dcbf b0bd
000003d0: b005 723d b0d2 753c f487 87bd 8010 69bc
000003e0: b09a 313c 302e 64bd 7a7b a4bd 0c44 90bd
000003f0: 0811 f73c 7e92 e1bd 8832 a13d 6c20 a83d
0.03989598 -0.010715395 0.04060422 -0.123124674 -0.08550407 -0.052561253 -0.113155395 -0.09440401
-0.09613444 0.035884425 0.03786975 -0.0030106753 -0.028891563 0.0033703297 0.075531155 -0.094122246
0.088806525 0.054366052 -0.04363388 0.087702125 -0.00010353327 -0.057284057 0.11264776 0.036945045
0.09433335 -0.033920527 -0.10711345 0.10024223 0.00723134 0.059363544 -0.032399803 0.059121996
-0.09876801 0.0044092685 0.09491247 -0.03356555 0.10736184 0.045968637 0.061619982 0.12351462
-0.030413806 -0.02910076 0.0786041 -0.063258484 -0.09216483 0.08150615 -0.10906452 -0.0592003
0.030288443 0.018407345 -0.07577951 -0.03162372 0.080238506 -0.080996454 0.07169993 -0.013385966
-0.0447437 -0.11907537 -0.032786503 0.10278466 -0.068478525 -0.09920548 -0.009752557 0.08861114
-0.03390771 0.122537225 0.12040104 0.114522636 -0.07149722 -0.08898078 -0.117148206 -0.024306148
-0.08140503 0.058233812 0.011273429 0.099139035 -0.11595869 -0.10504046 -0.023261204 0.032945275
0.10524283 -0.01045078 0.10682295 -0.033839434 -0.017645702 -0.048131317 -0.0531255 -0.047353536
-0.108052656 -0.015344411 -0.04214853 -0.08092934 -0.09271881 -0.12054174 -0.028010577 -0.10176836
0.11238687 -0.03355424 0.0335999 -0.08961728 0.012754694 -0.117480054 0.05627404 0.05903296
-0.12147105 0.054507583 0.015914127 -0.07807015 -0.057229474 0.12286526 -0.065018624 0.10936749
0.025155008 0.057270825 -0.062917456 0.040632874 0.026915103 0.09969325 -0.12361053 -0.045446515
0.003112644 -0.08971833 0.02130282 0.080596164 0.07532887 -0.06445557 0.05052817 -0.09095386
0.07770413 -0.1021664 -0.11332396 0.04338114 -0.011800155 0.030812487 0.11631124 0.11974506
0.07048136 -0.11339043 -0.01924549 0.013664246 -0.12171689 0.104535565 0.082026854 -0.057742834
-0.02608706 -0.07250604 0.04807797 0.02155815 -0.04333636 0.066828445 -0.027020797 0.013423756
0.08654651 -0.058729753 -0.115287066 0.06746574 -0.08169119 0.04725489 -0.037580177 0.08391003
-0.004754305 -0.05691442 -0.08818138 0.08399682 -0.0782136 0.035434097 0.09559442 -0.100409746
-0.104912415 0.01275216 -0.0490686 -0.09176068 0.08265635 -0.116283685 -0.056993037 -0.103830606
0.033037767 0.010781035 0.052140027 0.052334458 -0.00049446523 -0.037537724 0.11053024 0.0051982403
0.029760286 -0.10292874 -0.12251164 -0.061055303 -0.06550053 0.03621596 -0.05555895 0.0130542815
0.11583619 -0.036873594 0.031935677 0.0015329868 0.08225982 0.054670766 -0.005807355 0.068369895
-0.006359741 -0.02125001 -0.04872386 -0.1019728 0.104415774 -0.07921241 -0.11916366 -0.056066588
0.025250196 -0.011343792 0.056904644 0.07161647 0.07351385 -0.10487838 0.05096194 0.06187503
-0.06934503 0.0006054789 0.01873526 0.015674427 0.067076504 0.106126115 0.12005922 0.027986854
0.07309954 0.053444132 -0.06762451 0.083601296 -0.00888136 0.051012278 -0.08296226 0.10000664
0.027898014 0.028326303 -0.1111999 -0.010863602 -0.043710455 0.11801453 -0.11444001 -0.030847028
-0.0619988 -0.09061499 0.04807739 -0.08630344 0.059087455 0.015003845 -0.06617728 -0.014225125
0.010840103 -0.05570811 -0.08031364 -0.07044229 0.030159488 -0.11014269 0.07870966 0.08209309

gnn_layers.0.node_mlp.0.bias f4 [64]
00000000: 90dc 00bc 5cdf 993d 64ef 443d cc62 fe3d
00000010: 245a 573d 3653 a3bd 9aea a73d 4065 74bd
00000020: b066 ccbd 5c35 cebd 3a26 fe3d 2028 f13c
00000030: d80d 553d 88a4 5cbd 7456 cdbd 4823 0f3d
00000040: c4dd d1bd 98b5 d73c 38c8 87bc 602e 4b3c
00000050: ae5b a23d 3e14 e7bd e0df 5d3d a82f 68bd
00000060: 880e c1bc 2807 84bd 64fb 2abd 14a0 423d
00000070: 9428 7e3d b07a cdbd 18bb ab3c 0098 33b9
00000080: 94a1 a93d 0078 fdb9 7076 ed3d 20be cb3d
00000090: 1a2e e5bd 8c62 cd3d a03d 183c 203d 4bbc
000000a0: 10fa 9bbd 6443 9fbd b4b9 163d d06f 49bd
000000b0: 280e 393d 2854 87bc a0f4 efbc b2bc 993d
000000c0: 5665 b7bd 9482 31bd 2efe b03d b869 893d
000000d0: 9070 f93d d27d c03d fac1 abbd e06c 923d
000000e0: d042 2a3c ee7b b43d 7877 f6bc 54fc 873d
000000f0: 88b9 eebc 80de 653d 9022 7dbd 98b9 7e3d
-0.007865086 0.075133055 0.048079863 0.12421188 0.0525762 -0.079748556 0.081990436 -0.059666872
-0.099805236 -0.10068771 0.12409635 0.029438078 0.052015156 -0.053867847 -0.10026255 0.034945756
-0.102473766 0.026331708 -0.016574964 0.012401193 0.07927643 -0.11283158 0.054168582 -0.056686074
-0.0235665 -0.064466774 -0.04174365 0.047515944 0.062050417 -0.100331664 0.020963237 -0.00017127395
0.08282772 -0.00048345327 0.11594856 0.09948373 -0.11190434 0.10028562 0.009292036 -0.01240471
-0.07616055 -0.077765256 0.036798194 -0.0491789 0.045179516 -0.016519621 -0.029291451 0.07506694
-0.08954875 -0.04333742 0.08642231 0.067096174 0.12179673 0.09398998 -0.083866075 0.071496725
0.010391906 0.088127 -0.030086264 0.06639925 -0.029141203 0.056120396 -0.06180054 0.062188715

gnn_layers.0.node_mlp.1.weight f4 [64]
00000000: 0000 803f 0000 803f 0000 803f 0000 803f
00000010: 0000 803f 0000 803f 0000 803f 0000 803f
00000020: 0000 803f 0000 803f 0000 803f 0000 803f
00000030: 0000 803f 0000 803f 0000 803f 0000 803f
00000040: 0000 803f 0000 803f 0000 803f 0000 803f
00000050: 0000 803f 0000 803f 0000 803f 0000 803f
00000060: 0000 803f 0000 803f 0000 803f 0000 803f
00000070: 0000 803f 0000 803f 0000 803f 0000 803f
00000080: 0000 803f 0000 803f 0000 803f 0000 803f
00000090: 0000 803f 0000 803f 0000 803f 0000 803f
000000a0: 0000 803f 0000 803f 0000 803f 0000 803f
000000b0: 0000 803f 0000 803f 0000 803f 0000 803f
000000c0: 0000 803f 0000 803f 0000 803f 0000 803f
000000d0: 0000 803f 0000 803f 0000 803f 0000 803f
000000e0: 0000 803f 0000 803f 0000 803f 0000 803f
000000f0: 0000 803f 0000 803f 0000 803f 0000 803f
1.0 1.0 1.0 1.0 1.0 1.0 1.0 1.0
1.0 1.0 1.0 1.0 1.0 1.0 1.0 1.0
1.0 1.0 1.0 1.0 1.0 1.0 1.0 1.0
1.0 1.0 1.0 1.0 1.0 1.0 1.0 1.0
1.0 1.0 1.0 1.0 1.0 1.0 1.0 1.0
1.0 1.0 1.0 1.0 1.0 1.0 1.0 1.0
1.0 1.0 1.0 1.0 1.0 1.0 1.0 1.0
1.0 1.0 1.0 1.0 1.0 1.0 1.0 1.0

gnn_layers.0.node_mlp.1.bias f4 [64]
00000000: 0000 0000 0000 0000 0000 0000 0000 0000
00000010: 0000 0000 0000 0000 0000 0000 0000 0000
00000020: 0000 0000 0000 0000 0000 0000 0000 0000
00000030: 0000 0000 0000 0000 0000 0000 0000 0000
00000040: 0000 0000 0000 0000 0000 0000 0000 0000
00000050: 0000 0000 0000 0000 0000 0000 0000 0000
00000060: 0000 0000 0000 0000 0000 0000 0000 0000
00000070: 0000 0000 0000 0000 0000 0000 0000 0000
00000080: 0000 0000 0000 0000 0000 0000 0000 0000
00000090: 0000 0000 0000 0000 0000 0000 0000 0000
000000a0: 0000 0000 0000 0000 0000 0000 0000 0000
000000b0: 0000 0000 0000 0000 0000 0000 0000 0000
000000c0: 0000 0000 0000 0000 0000 0000 0000 0000
000000d0: 0000 0000 0000 0000 0000 0000 0000 0000
000000e0: 0000 0000 0000 0000 0000 0000 0000 0000
000000f0: 0000 0000 0000 0000 0000 0000 0000 0000
0.0 0.0 0.0 0.0 0.0 0.0 0.0 0.0
0.0 0.0 0.0 0.0 0.0 0.0 0.0 0.0
0.0 0.0 0.0 0.0 0.0 0.0 0.0 0.0
0.0 0.0 0.0 0.0 0.0 0.0 0.0 0.0
0.0 0.0 0.0 0.0 0.0 0.0 0.0 0.0
0.0 0.0 0.0 0.0 0.0 0.0 0.0 0.0
0.0 0.0 0.0 0.0 0.0 0.0 0.0 0.0
0.0 0.0 0.0 0.0 0.0 0.0 0.0 0.0

gnn_layers.0.node_mlp.1.running_mean f4 [64]
00000000: 0000 0000 0000 0000 0000 0000 0000 0000
00000010: 0000 0000 0000 0000 0000 0000 0000 0000
00000020: 0000 0000 0000 0000 0000 0000 0000 0000
00000030: 0000 0000 0000 0000 0000 0000 0000 0000
00000040: 0000 0000 0000 0000 0000 0000 0000 0000
00000050: 0000 0000 0000 0000 0000 0000 0000 0000
00000060: 0000 0000 0000 0000 0000 0000 0000 0000
00000070: 0000 0000 0000 0000 0000 0000 0000 0000
00000080: 0000 0000 0000 0000 0000 0000 0000 0000
00000090: 0000 0000 0000 0000 0000 0000 0000 0000
000000a0: 0000 0000 0000 0000 0000 0000 0000 0000
000000b0: 0000 0000 0000 0000 0000 0000 0000 0000
000000c0: 0000 0000 0000 0000 0000 0000 0000 0000
000000d0: 0000 0000 0000 0000 0000 0000 0000 0000
000000e0: 0000 0000 0000 0000 0000 0000 0000 0000
000000f0: 0000 0000 0000 0000 0000 0000 0000 0000
0.0 0.0 0.0 0.0 0.0 0.0 0.0 0.0
0.0 0.0 0.0 0.0 0.0 0.0 0.0 0.0
0.0 0.0 0.0 0.0 0.0 0.0 0.0 0.0
0.0 0.0 0.0 0.0 0.0 0.0 0.0 0.0
0.0 0.0 0.0 0.0 0.0 0.0 0.0 0.0
0.0 0.0 0.0 0.0 0.0 0.0 0.0 0.0
0.0 0.0 0.0 0.0 0.0 0.0 0.0 0.0
0.0 0.0 0.0 0.0 0.0 0.0 0.0 0.0

gnn_layers.0.node_mlp.1.running_var f4 [64]
00000000: 0000 803f 0000 803f 0000 803f 0000 803f
00000010: 0000 803f 0000 803f 0000 803f 0000 803f
00000020: 0000 803f 0000 803f 0000 803f 0000 803f
00000030: 0000 803f 0000 803f 0000 803f 0000 803f
00000040: 0000 803f 0000 803f 0000 803f 0000 803f
00000050: 0000 803f 0000 803f 0000 803f 0000 803f
00000060: 0000 803f 0000 803f 0000 803f 0000 803f
00000070: 0000 803f 0000 803f 0000 803f 0000 803f
00000080: 0000 803f 0000 803f 0000 803f 0000 803f
00000090: 0000 803f 0000 803f 0000 803f 0000 803f
000000a0: 0000 803f 0000 803f 0000 803f 0000 803f
000000b0: 0000 803f 0000 803f 0000 803f 0000 803f
000000c0: 0000 803f 0000 803f 0000 803f 0000 803f
000000d0: 0000 803f 0000 803f 0000 803f 0000 803f
000000e0: 0000 803f 0000 803f 0000 803f 0000 803f
000000f0: 0000 803f 0000 803f 0000 803f 0000 803f
1.0 1.0 1.0 1.0 1.0 1.0 1.0 1.0
1.0 1.0 1.0 1.0 1.0 1.0 1.0 1.0
1.0 1.0 1.0 1.0 1.0 1.0 1.0 1.0
1.0 1.0 1.0 1.0 1.0 1.0 1.0 1.0
1.0 1.0 1.0 1.0 1.0 1.0 1.0 1.0
1.0 1.0 1.0 1.0 1.0 1.0 1.0 1.0
1.0 1.0 1.0 1.0 1.0 1.0 1.0 1.0
1.0 1.0 1.0 1.0 1.0 1.0 1.0 1.0

gnn_layers.0.node_mlp.3.weight f4 [64, 64]
00000000: f660 963d 1298 c23d 70d5 88bd 8c66 8bbd
00000010: 78e8 2d3d ca12 a9bd 8aef 99bd c0f7 803c
00000020: 0477 f13d 1669 b5bd 5002 b2bc e669 bcbd
00000030: 70e4 59bc b069 e23d e458 c4bd 0268 ac3d
00000040: 2e0c 8c3d 6836 863c 7e76 a83d bcef 7c3d
00000050: 185b 223d 18eb 903c 1e7b a6bd d221 f3bd
00000060: 348d ab3d 700d 3bbd 3698 e7bd 8c54 27bd
00000070: 4c3f b4bd 4cb1 d03d 7c17 bd3d 64de e3bd
00000080: 64f4 4f3d 00ef 50bd eeae f43d 3020 413c
00000090: 806c fbbb e07b 493d 0092 dbbd 5814 4bbd
000000a0: 6272 d33d da4e db3d 5841 b4bc 14a3 c03d
000000b0: 6e17 d2bd 8cbe c9bd 18ce cfbc 60a5 efbd
000000c0: 461d dc3d 484e 96bc 246b 88bd 64cb 1c3d
000000d0: 88f8 acbc 2894 963d 18e1 923d f0c5 bcbd
000000e0: 5004 e33c b0b1 cdbc 14c1 7b3d 001d b2bd
000000f0: 409d 043b 14a3 1a3d 685e cbbd 549b 1d3d
00000100: 2477 44bd 78fc 3d3d ac30 59bd e066 debc
00000110: a412 f5bd 3025 8bbc e2c6 c03d cc5f 343d
00000120: 6698 c0bd 023b d5bd 5ceb c13d 1c42 5cbd
00000130: 789d cbbd 1cb9 51bd 4666 863d f091 783c
00000140: 3ede 82bd fcd0 7d3d 8c67 ff3d 485d e63c
00000150: a2fb bfbd dcf4 0bbd 1edc febd a076 da3d
00000160: c688 a7bd 001b 6cbb 8a4f 96bd 804e 90bb
00000170: 00fe b4bd 803b cabd 248e b8bd 80fc 593d
00000180: b6ff ffbd 3050 d53d 64c6 5c3d 9843 893d
00000190: 747c ef3d b0bd 173c 8069 02bd 380d ecbd
000001a0: 041d 98bd b0f1 aebd c686 eabd 2037 54bd
000001b0: 0094 28bb 40f4 7abb 386a 9f3c a0fc afbd
000001c0: 5cfb 973d 92df edbd 00e9 2e3d d49b 4bbd
000001d0: 88f0 da3d 5272 86bd fecf ee3d f658 babd
000001e0: 5053 a9bd 0024 52bc d029 b2bd 0010 503c
000001f0: c2fa b6bd 70e1 57bc b828 83bc f845 35bd
00000200: 8041 a63c dc72 91bd 7662 953d 5800 12bd
00000210: c8ec 91bd 3cb9 15bd 0450 3b3d 7021 92bd
00000220: 92f0 eebd 809b e7bc 8a90 adbd da4a fa3d
00000230: 74b9 33bd f058 013d c043 71bd 008c 493b
00000240: a865 e1bc 2852 95bc 2617 d43d c446 573d
00000250: fcca 81bd 546c 843d 90cf a4bd 62fc c43d
00000260: 7a18 e2bd 6078 f9bd 6239 fb3d 48da 8b3d
00000270: a005 903b aef6 c5bd 1cda 9d3d 80b9 4fbd
00000280: 3c4d 0f3d 50c4 b23c ec81 a43d 689b f1bc
00000290: cae1 ff3d d2b9 b9bd 10f6 67bd 7e1d fc3d
000002a0: 16ed e1bd c40e 1cbd 74f9 1f3d 84cb 4c3d
000002b0: 006f 23bd 52df c8bd ae58 d83d 707a c4bd
000002c0: aaad f33d b04c 193c e050 92bd e8ab 8f3c
000002d0: 00b5 89bb 4a14 d5bd 781c de3d e481 95bd
000002e0: 180d b7bc 9c21 89bd d050 e13c 569e abbd
000002f0: 9270 db3d 10df 07bd 72e5 ee3d 001e 0e3a
00000300: 30d9 a4bc eaaf e5bd 5ab6 a03d 0062 52ba
00000310: c28f cbbd 7c52 773d 409f 9b3c 0c00 8cbd
00000320: 28de 99bd f088 cebc d0d2 6f3d f03c 253d
00000330: a62b 9ebd 5885 b3bd 926b d63d 78a2 c73c
00000340: 18ca 793d fa41 f1bd 68af 713d 6636 de3d
00000350: 4021 80bb b0a3 cf3d f0f4 d83c 40d9 9f3b
00000360: bcc1 323d b440 33bd d02d 59bc 5882 c8bc
00000370: d41c 043d 6067 4b3c 08fa 6ebd 2020 833d
00000380: 289c 8fbd 947a a13d d0b9 4d3c e011 03bc
00000390: 8089 05bc 282f e03c a0b2 ab3b e860 df3d
000003a0: 540c cd3d de86 fe3d e490 9b3d 80c6 2d3b
000003b0: 7067 46bd 4c13 3ebd e04c 9b3d e01d 22bc
000003c0: fa9a e5bd e0a9 803b 8875 f1bc 5840 b9bd
000003d0: ce28 c2bd 8008 3bbc 8c3b 373d 2421 8a3d
000003e0: 0e5f b7bd 607f d8bd a86a c3bd e02c a4bb
000003f0: b056 27bc d825 6f3d 8e63 d0bd 7cf0 e83d
0.073427126 0.09501661 -0.06681335 -0.06806669 0.042458028 -0.08255537 -0.075163916 0.015743136
0.117902786 -0.08857934 -0.021729618 -0.09199886 -0.013299093 0.110553145 -0.09587267 0.084182754
0.068382606 0.016383365 0.082257256 0.061752066 0.039637655 0.017690226 -0.081289515 -0.11871685
0.08376542 -0.045667112 -0.11308329 -0.040852115 -0.088011354 0.10190067 0.09232995 -0.11126402
0.05077018 -0.05100918 0.11947428 0.011787459 -0.0076728463 0.049190402 -0.10721207 -0.04957995
0.10324551 0.10708399 -0.022003815 0.09406105 -0.10258375 -0.09850797 -0.025366828 -0.11701465
0.10747771 -0.018347874 -0.066610605 0.038279906 -0.021114603 0.07352477 0.071718395 -0.09217441
0.027712017 -0.025109142 0.06146343 -0.086969376 0.002023533 0.03775318 -0.09930116 0.03847821
-0.047965184 0.04638335 -0.053024933 -0.027148664 -0.11966446 -0.016985506 0.09412934 0.04403667
-0.09404068 -0.104116455 0.09468719 -0.053773984 -0.09942144 -0.051201925 0.06562476 0.015171513
-0.063900456 0.06196688 0.12470922 0.028120652 -0.09374167 -0.034169063 -0.12444328 0.10667157
-0.08180384 -0.0036026835 -0.073393896 -0.004403889 -0.08837509 -0.0987463 -0.09011486 0.05321932
-0.12499945 0.10415685 0.053900138 0.067023456 0.116936594 0.009261534 -0.031838894 -0.11525959
-0.07427409 -0.08542192 -0.11451487 -0.051810384 -0.002572298 -0.0038292557 0.019459829 -0.08593106
0.0742099 -0.11614908 0.042702675 -0.049709156 0.10690409 -0.065647736 0.11660765 -0.09098999
-0.08267844 -0.012825966 -0.08699381 0.012699127 -0.08934547 -0.013176307 -0.016010627 -0.04425618
0.020294905 -0.07101986 0.072941706 -0.03564486 -0.071252406 -0.036553606 0.045730606 -0.07135284
-0.11666979 -0.02827239 -0.08474834 0.12221308 -0.043878034 0.031578958 -0.058902502 0.0030753613
-0.027514294 -0.018227652 0.10355978 0.05255772 -0.06337544 0.064659745 -0.08047402 0.09618451
-0.11039825 -0.12181163 0.12266804 0.06828743 0.004395202 -0.09666191 0.07707617 -0.050714016
0.034985766 0.021822125 0.08032593 -0.029493049 0.12494238 -0.090686455 -0.056631148 0.12310313
-0.11031549 -0.03810002 0.039056256 0.049998775 -0.03990078 -0.0980822 0.10563789 -0.095936656
0.11898358 0.009356663 -0.07144332 0.017538026 -0.004202485 -0.104042605 0.10845274 -0.07300165
-0.02234511 -0.066958636 0.027504355 -0.083798096 0.107148305 -0.033171713 0.11664857 0.00054213405
-0.020123094 -0.112151936 0.07847281 -0.00080254674 -0.09939529 0.060381398 0.018996835 -0.068359464
-0.07513076 -0.025211781 0.058550656 0.040341318 -0.07723169 -0.08765668 0.10469736 0.024369463
0.060983747 -0.11780162 0.05900517 0.108502194 -0.0039102137 0.10138643 0.026483983 0.004878193
0.04364179 -0.043762878 -0.013255551 -0.024476215 0.032254055 0.012414783 -0.058343917 0.06402612
-0.07012206 0.07884708 0.012556508 -0.007999867 -0.008150458 0.027366236 0.0052397996 0.10907155
0.10012117 0.124280676 0.07595995 0.002651602 -0.04843849 -0.04640512 0.07583022 -0.009894818
-0.112112 0.0039265007 -0.029474989 -0.09045476 -0.09480439 -0.011415601 0.044734523 0.06744602
-0.08953677 -0.1057117 -0.095418274 -0.0050102323 -0.010213539 0.0583857 -0.101752385 0.11373994

gnn_layers.0.node_mlp.3.bias f4 [64]
00000000: 48e5 ffbd e8b0 98bc d82e eabc 70fa 5ebd
00000010: bcfb 533d 7a3a b33d 8067 773c 440f 44bd
00000020: 2430 213d 60dc 64bd a0fb fdbb 3853 903d
00000030: 9811 c8bc 06a8 f63d 5670 fd3d dce8 123d
00000040: 701d 44bc 1018 f5bc 8c2b 513d 8883 9a3c
00000050: 2812 d8bd e84c dabd 00ad 643a f893 003d
00000060: a283 9f3d 40df b53d 50b4 223d 9e8b bd3d
00000070: 9ca6 bc3d 16dc bbbd 7023 f33d f01e 76bd
00000080: 0804 a2bd 280a 863c 36b2 acbd 2004 193c
00000090: e025 903b 2c4f 1c3d 3a1c 92bd 4027 823d
000000a0: 463c be3d 005a 3e3c 78f2 6f3d d83e 92bd
000000b0: 68f0 593d 4ca8 95bd e4d6 35bd 4838 c1bc
000000c0: 009c 4bba 7a75 e73d f802 973c fe5a fd3d
000000d0: c888 f13c fcda 1fbd d449 29bd b02e 48bc
000000e0: e0fb a7bd 18a4 463d d4ec e43d 8624 933d
000000f0: fe8c 9c3d 489a f83d 2849 843c 2034 f9bb
-0.12494904 -0.018639043 -0.02858679 -0.054438055 0.051753744 0.08751388 0.01510036 -0.04786612
0.03935255 -0.05587423 -0.0077509433 0.07047123 -0.024422452 0.12043767 0.12374942 0.035866603
-0.011969909 -0.0299187 0.05106692 0.018861547 -0.10550338 -0.106592 0.0008723289 0.031391114
0.07788779 0.08880472 0.03972274 0.092551455 0.09211466 -0.091728374 0.118719935 -0.060088098
-0.07910925 0.016362265 -0.084324285 0.009339362 0.0043990463 0.03816144 -0.0713429 0.063551426
0.0928884 0.011618137 0.058580846 -0.07140893 0.053207785 -0.07307491 -0.04439439 -0.023586407
-0.0007767081 0.11301704 0.018434033 0.12370871 0.029484168 -0.0390272 -0.041330174 -0.012218162
-0.08202338 0.048496336 0.11177984 0.07184701 0.076440796 0.12138802 0.016148165 -0.0076050907

gnn_layers.0.edge_mlp.0.weight f4 [64, 76]
00000000: 2a8a f6bd 816b e7bd 9c7c e9bd 515d 9c3d
00000010: 30b0 70b9 d8f4 01be ba04 d5bc 4e01 0fbe
00000020: c27d 85bd 7a07 39bd c820 5a3d 8806 00bc
00000030: 6b90 09be fb7e 0dbe 9316 923d 0c16 fd3d
00000040: fd2d 9b3d 7ee9 f5bc 1eb3 b0bc 313c 0b3e
00000050: 9ef1 b43c 690b fbbb cb73 0a3d 9288 58bd
00000060: 434a 4e3d 7caf 1dbe 0441 15be 6e19 e6bd
00000070: f650 19bc 7048 263e cbca fbbd af6d 293e
00000080: d60d f4bc fecc 143e b352 05bd b883 07be
00000090: 0821 e6bd 3f15 cebd 895f 2ebe 1dd3 2cbe
000000a0: e814 37b8 6295 db3d c368 4dbd 0fff 72bd
000000b0: 696c f23d 6304 ebbd db86 f0bd bb4b 4c3e
000000c0: 5c62 c63d 4452 1b3c 4827 273d 5525 b8bd
000000d0: a854 08bb 48dc 993d ec9e d0bd c29e 65be
000000e0: c094 dcbc 586f a5bc 6fc5 403d 73c9 673d
000000f0: 00ef 113e 2ee3 273d 0bc3 04be d750 a3bd
00000100: e7ad 063e 323f 5abe 9e2f e4bd 9be6 d1bd
00000110: 551b 393d 1031 44be 3d9a 99bd 5c4d 19be
00000120: 8e24 40bd 8474 6fbc 1740 d2bd d243 39be
00000130: d4a0 8c3b 9b93 81bd 1e3c 6abe 4617 483d
00000140: 9f80 afbc 3d2f 04be 8220 f33d 6709 a63c
00000150: 584e 00bd 248c 053d 6a26 7d3d 6fb4 91bb
00000160: c24e a33e 6cae 3d3e 3f36 eaba b7ab 463e
00000170: 8165 583e dd04 d33c dc2a 2c3d ee04 b9bc
00000180: a037 c4bd 8dfc 1fbd ffa8 c43d 4c95 4d3e
00000190: 5596 ff3c 1730 e63d 6600 8a3e f9d0 623b
000001a0: 71a8 713e ebbc 283d 1c4b 973c e73f 983d
000001b0: 1b0c acbd 9537 adbb 456f 1cbe 78b4 9f3d
000001c0: 5fd1 8cbc 7eb0 01be 4abe 643d bf2c 07be
000001d0: 47e7 e83d 3905 283e 3024 68bd 9a10 223e
000001e0: ebf0 bcbc 79c7 163c 48fe f63b f1a3 2a3d
000001f0: 8bf9 94bd 23f5 87be 26e5 07be c753 f9bc
00000200: 822d 29be 9e91 f7bc ebb9 e93d 5ba7 15bd
00000210: 3f1a a23c 4a97 c8bc 7fb5 fd3b 34ee 183c
00000220: 2ad7 2cbe 8374 203d f51a 343e ecb3 b03d
00000230: 6e90 b93d fada 47be f9df dabc 0c9e a3bd
00000240: dd74 a53d d015 56be 2131 84bd 8493 02be
00000250: eab7 51bd f906 ccbd 8473 70ba c61d 23be
00000260: 7eff 3ebc 7d14 1e3e cfc8 2b3d 70cb 95be
00000270: 4ff5 533d 8e2a 0dbd 9e89 253e 5b54 bfbd
00000280: 8ecf 8fbb 9bcc d8bd e2ac afbd bff2 05bb
00000290: 38d0 f63d bec5 553d 68dd c8bd 91ed c63d
000002a0: 8833 ae3d feb4 9ebd a1a2 a03d 5f80 25be
000002b0: 8433 a4bd a17b fa3d a456 4c3d 7408 243d
000002c0: 034e 6e3e 770e cfbd 18ca e83d 5253 603c
000002d0: b5fb bcbd 118d b63b 8917 f2bd dfba 993d
000002e0: f527 923d 5d4d 8dbd 1c5a 3dbe ad7d 703d
000002f0: e72f cd3c ae92 b6bd 0e8e d73d 3681 d73d
00000300: a176 e73d acfc 9f3b d139 b8bd 85fc e8bd
00000310: a424 7bbe e1a6 c03d fda7 113e 99c9 683d
00000320: 1f16 38be 1410 b4bd 24f4 603c 178a fdbc
00000330: 7718 253d dd9f ae3c 6d7f 503c 05b3 a2bd
00000340: 6242 abbd a8ea efbd c142 bb3d dd49 e23d
00000350: 0bb9 ccbd fb9f 563d 8a97 0b3c c90b b2bd
00000360: 5852 103e 8f5d 3ebe e335 1f3c 6a3d 8d3c
00000370: 53cb 11bd 612e b9bd 40af 383d e352 303e
00000380: eb81 093e b3c0 7a3d abde db3e 90c7 8b3d
00000390: d3cd aebd 94d8 253d 240e 31bd a76c f4bd
000003a0: 04a9 913c c5f5 323d 9d21 aebc f746 f23d
000003b0: f859 09ba ee75 4fbb dd8c f3bc bd59 e23d
000003c0: cdde 06be 915e 933c 3f2a bfbc e20e c83d
000003d0: 8b37 10be 0e96 f1bc 5eb8 1d3e 2c24 d13c
000003e0: b80e 9f3c bede c9bd b5af a13d cc4c 60be
000003f0: e9e9 3fbd e489 02be 184a 24be 5cfa 543e
-0.120380715 -0.112998016 -0.114007205 0.07634986 -0.00022953819 -0.12691057 -0.02600323 -0.13965341
-0.06518127 -0.045173146 0.05325392 -0.007814057 -0.13433997 -0.1381797 0.07133212 0.12357721
0.07577131 -0.030018564 -0.021569785 0.1359718 0.022087868 -0.0076612723 0.033801835 -0.05286462
0.05036379 -0.15398973 -0.14575583 -0.11235319 -0.0093576815 0.1623857 -0.12294539 0.16545747
-0.029791754 0.14531323 -0.03254957 -0.1323384 -0.11236769 -0.10062646 -0.17028631 -0.16877408
-4.365007e-05 0.10721852 -0.050148737 -0.059325274 0.11837084 -0.11475446 -0.11744472 0.19950764
0.09686729 0.009480063 0.040808946 -0.089914955 -0.0020802412 0.075127184 -0.10186562 -0.22423843
-0.026926398 -0.020194694 0.047063287 0.0565886 0.14251328 0.04098814 -0.12965028 -0.07974403
0.13152276 -0.2131317 -0.11141895 -0.10249063 0.04519208 -0.19159341 -0.07500122 -0.14970917
-0.04690986 -0.014615182 -0.102661304 -0.18092278 0.004291633 -0.06326982 -0.22874495 0.04885032
-0.021423636 -0.12908645 0.11871435 0.020268155 -0.031324714 0.03260435 0.061804213 -0.004446558
0.31896025 0.18523568 -0.001786895 0.19401442 0.2113247 0.025759155 0.04203306 -0.022585358
-0.09580922 -0.03905921 0.09602546 0.20076483 0.031199614 0.11239641 0.2695343 0.003460942
0.23599412 0.04119579 0.018468432 0.074340634 -0.084007464 -0.005286167 -0.15276821 0.077980936
-0.01718968 -0.12664983 0.055845536 -0.13200663 0.11372238 0.16408242 -0.056675136 0.15826645
-0.023064097 0.009202831 0.007537637 0.041660253 -0.07274159 -0.26554212 -0.13271007 -0.030435456
-0.16521266 -0.030220803 0.11412414 -0.036536556 0.019787906 -0.024486203 0.0077425833 0.009334136
-0.16878954 0.039173614 0.17588408 0.086280674 0.09060751 -0.19517127 -0.026718127 -0.079891294
0.080789305 -0.20906758 -0.06454683 -0.12751585 -0.051200785 -0.099622674 -0.00091724866 -0.15929326
-0.011657594 0.15437503 0.041939553 -0.29256773 0.051747616 -0.03446441 0.16165778 -0.093422614
-0.004388756 -0.105859004 -0.08577897 -0.0020438877 0.12051433 0.052190535 -0.09807855 0.09713281
0.085059226 -0.07749365 0.07843519 -0.16162251 -0.08017638 0.122306116 0.049887314 0.040047124
0.23271947 -0.10110181 0.11366671 0.01369174 -0.09227697 0.0055710156 -0.11820895 0.07506346
0.071365274 -0.068995215 -0.18491405 0.058713604 0.025047256 -0.08914696 0.10525142 0.10522692
0.113019235 0.0048824158 -0.089954026 -0.11376289 -0.24525696 0.094068296 0.14224239 0.056832884
-0.17977189 -0.08792129 0.013730083 -0.030949635 0.040306535 0.021316463 0.012725693 -0.079443015
-0.08362271 -0.11714679 0.09143592 0.110492446 -0.09996232 0.052398663 0.008520016 -0.08693654
0.14093912 -0.18590377 0.009717437 0.017241199 -0.035594296 -0.09042049 0.045089006 0.17219119
0.13428466 0.06121893 0.4294332 0.06825173 -0.085353516 0.040489748 -0.043226376 -0.11934786
0.017780788 0.043691415 -0.021256262 0.11829942 -0.00052395416 -0.0031655985 -0.029730255 0.110522725
-0.13170929 0.017989429 -0.023335574 0.09768464 -0.14083688 -0.029490497 0.15402362 0.025529943
0.019416198 -0.09856938 0.078948416 -0.21904296 -0.046853933 -0.12747914 -0.1604389 0.2079863

gnn_layers.0.edge_mlp.0.bias f4 [64]
00000000: 453e 89bd 2f9e 023d 5708 dbbd 46ac 22bc
00000010: 428c a83d 5d47 1abd 5d74 a23d 279d c33d
00000020: f166 64bc 5562 dabd 8356 853d d5e6 d73d
00000030: 43fa bcbd 3d16 c9bb 252b 8f3d bd49 e13c
00000040: 66b8 a03c 3a93 9fbd e770 54bd ec06 4cbe
00000050: 9f34 a0bc 4eda 383d 4f37 89bd 91fe 44be
00000060: 4707 ddbd d86b 0dbe 520d 2a3d a42a d13c
00000070: 075e 9f3d 2a22 9c3d db1e 4abd 79db f33b
00000080: 5693 323d 0e77 23be 0869 003d 36d5 3bbd
00000090: 28ad c53d 5756 90bd 052d 333d 1cc0 5bbe
000000a0: 5e5b 103d da5e 0d3d 5de6 26bd bc6a a63c
000000b0: febe 4f3e 3ce5 ae3d 1721 34bd 1530 7d3d
000000c0: 330e bb3d ae2d 023e 819a a03d d129 e8bd
000000d0: 5412 38bd d424 36bc 507f 86bd 02ad 673d
000000e0: cb8d 6ebd d27a b93d 61bd ff3d 89bc 853e
000000f0: 55c6 e83d bffe c5bc 3352 cbbc 23bd d13d
-0.0670133 0.031889137 -0.1069495 -0.0099287685 0.08229877 -0.037665714 0.07932351 0.09551459
-0.013940559 -0.106632866 0.065106414 0.105420746 -0.09227421 -0.006136684 0.06990651 0.027500981
0.019619178 -0.07791753 -0.051865485 -0.19924515 -0.019556342 0.045130067 -0.067000024 -0.19237734
-0.10792404 -0.1381067 0.04151661 0.025533028 0.07781606 0.07623704 -0.049345832 0.0074419347
0.04359754 -0.15963385 0.031350166 -0.04585763 0.096521676 -0.07047718 0.043744106 -0.21460003
0.035243385 0.034514286 -0.040747035 0.020314567 0.20287701 0.08539817 -0.04397687 0.061813433
0.09133568 0.12712738 0.07841969 -0.11336101 -0.044939354 -0.011117179 -0.06567252 0.056561477
-0.058240693 0.09056629 0.12487293 0.26120403 0.11365954 -0.024169324 -0.02481947 0.10241153

gnn_layers.0.edge_mlp.1.weight f4 [64]
00000000: 2d42 703f 9c85 7f3f 531b 843f 77fb 7c3f
00000010: 3b86 733f cbc8 813f fb70 633f df34 863f
00000020: c022 4e3f 22c9 6e3f bb55 7f3f 4347 843f
00000030: b32b 6a3f 9f71 663f 8cb6 6a3f d6c2 653f
00000040: 0d04 6d3f 3d10 7d3f 8776 763f fb93 693f
00000050: a7aa 403f 9c77 573f 7696 7d3f 0136 733f
00000060: 3480 833f 3c93 523f 0950 593f ee30 723f
00000070: 1209 803f b927 743f ff9b 8a3f 5cde 823f
00000080: a161 6e3f 4182 873f 7266 913f 96e7 833f
00000090: 336d 6b3f 946d 6c3f f7ec 5e3f 67d3 8f3f
000000a0: 2250 723f 21d1 813f fdfa 733f 6f2b 653f
000000b0: c887 803f 0b5d 7d3f 4607 673f 3856 813f
000000c0: 9fab 5f3f 5028 843f d070 423f 5f80 473f
000000d0: 70f2 773f e04f 7d3f 9018 493f 7ae6 713f
000000e0: 9bef 6e3f fd33 5d3f f516 6b3f b780 843f
000000f0: e82d 733f 7de8 773f e860 6b3f bac2 833f
0.93850976 0.99813247 1.0320839 0.98821205 0.95126694 1.0139402 0.8884427 1.0484885
0.80521774 0.93275654 0.9974019 1.0334247 0.9147293 0.9001712 0.91684794 0.8975042
0.92584306 0.988529 0.9627461 0.91241425 0.75260395 0.84166884 0.9905771 0.9500428
1.02735 0.8225591 0.8488775 0.9460591 1.0002768 0.9537311 1.0828856 1.0224109
0.9311772 1.0586625 1.1359389 1.030505 0.919635 0.923547 0.8708033 1.123639
0.9465352 1.0141946 0.9530485 0.895194 1.0041437 0.989701 0.90245473 1.0104437
0.8737125 1.0324802 0.7595339 0.77930254 0.96854305 0.98950005 0.78553104 0.94492304
0.9333436 0.8640745 0.91831905 1.0351781 0.9499192 0.96839124 0.9194474 1.0293801

gnn_layers.0.edge_mlp.1.bias f4 [64]
00000000: 01cf 03be b176 143d 2311 d1bd 7098 b0bd
00000010: 148b ddbd 5ec0 b2bd affd d1bd aa7c d3bd
00000020: 6ab7 d8bd 984b 90bc 3651 cfbd fcf1 bcbd
00000030: 3595 cebc 9a34 95be 96ea 83bd ec1f 61bd
00000040: 8db7 18bd f910 04be 12ee ccbd d0b7 253d
00000050: 2756 85bd 3e83 acbe 60a8 10bd b459 16be
00000060: 9857 b53c e45b 06bd dc4a 37be 89e2 f9bd
00000070: 5c09 2cbe 3f84 7bbe e930 83bb c10c dd3b
00000080: 8c8a 4bbe dae8 293e 2d1b 94bc 7239 4abd
00000090: ccc2 07be 863d f5bd 4918 50be 0d2a a4bc
000000a0: 1e45 3dbe 85c2 27be 5da6 e8bc 0ec7 36be
000000b0: 665b 7b3c 1331 e0bd 87db e0bd acc1 89be
000000c0: c5cc e6bd 6e41 5cbe 2005 5cbe 5cff 72bd
000000d0: 497c 19be ae5a 80be c755 b93b 1eb7 09be
000000e0: 464b 54bd 9c0e b4bd 36da 2abe 5647 a1bd
000000f0: 0b86 ee3a 7da1 c43c 2b57 ba3d 9efb 27be
-0.12871934 0.036246005 -0.10208347 -0.08622825 -0.10817543 -0.087280974 -0.102534644 -0.10326512
-0.105818585 -0.01761417 -0.10122912 -0.09225842 -0.025217632 -0.29141694 -0.06441228 -0.054962084
-0.037284423 -0.128971 -0.10006346 0.0404585 -0.06510573 -0.3369388 -0.035316825 -0.14682657
0.022136495 -0.032802477 -0.1789965 -0.12201411 -0.16800445 -0.24562167 -0.0040036333 0.006745905
-0.1987707 0.16592732 -0.018079365 -0.04937119 -0.13257903 -0.11974625 -0.20321764 -0.020039583
-0.18483397 -0.16382797 -0.02839964 -0.17849371 0.015341615 -0.1094686 -0.109793715 -0.26905572
-0.112695254 -0.21509334 -0.2148633 -0.05932556 -0.14988817 -0.25069183 0.0056559774 -0.1344876
-0.0518296 -0.08791849 -0.16684803 -0.078749344 0.0018197907 0.024002785 0.09098657 -0.16404578

gnn_layers.0.edge_mlp.1.running_mean f4 [64]
00000000: eb37 52be 7a6d ad3d 17ef d13e 2466 32be
00000010: 6e2d 133f 51c8 1fbd 6bd3 033e 7c5c b5be
00000020: ba0a be3e 2ac6 b0be 0eff 82be 41d2 923e
00000030: c53a ccbe 6245 a43d 180a bbbe df7b a73e
00000040: 5105 af3d 5a80 e73d bf4d d5be e00f 10bf
00000050: 4d06 4bbe 26a4 29bc 15d5 843e a758 babe
00000060: a6c2 bcba 4bb8 143d 3efd 0bbe b85d 61bd
00000070: 7ccc 953e bfbb 233e 8f28 8e3e c644 eabe
00000080: 6ef3 a1bd de61 0cbf d48e 803d 91be b2be
00000090: 6e22 ae3e 3806 823c a4aa fe3e 3801 37bf
000000a0: c152 713b df27 efbe 4a76 573e daa3 703e
000000b0: 96b9 1d3f 97d8 3e3e 6879 02be 72c7 20be
000000c0: 5fcf 483f aed2 fbbd 1ad2 d03d 4d4e e6be
000000d0: b489 b9be bfb8 f4be 6dad a93e 4c7f 3fbe
000000e0: 2dd1 dabe 3ec8 ac3e 461d 303d ce98 ba3e
000000f0: 5e1c fd3e f486 18bf d45c 4abe 74ed 843d
-0.20529144 0.084681466 0.41002724 -0.17421776 0.57491195 -0.039009396 0.12873618 -0.35422122
0.3711756 -0.34526187 -0.25585216 0.28676036 -0.39888588 0.08021046 -0.36531138 0.32711694
0.08545936 0.11303778 -0.41660878 -0.56274223 -0.19826622 -0.010354077 0.2594382 -0.3639576
-0.0014401271 0.036308568 -0.13670823 -0.055021018 0.29257572 0.15989588 0.2776532 -0.45755595
-0.07907759 -0.54836833 0.06277242 -0.34911016 0.34010643 0.015872106 0.49739563 -0.71486235
0.0036823007 -0.46710107 0.21041217 0.23500004 0.61611307 0.1863731 -0.12741625 -0.15701082
0.78441423 -0.12296043 0.10196324 -0.44981614 -0.36237872 -0.477972 0.33140126 -0.18700904
-0.42737713 0.33746523 0.042996667 0.36444706 0.49435705 -0.5958092 -0.19761974 0.06490603

gnn_layers.0.edge_mlp.1.running_var f4 [64]
00000000: 6f64 833d f08b 243e be87 853d af6b 8f3d
00000010: 5d02 b73d f62b 973d b102 df3d ab33 ac3d
00000020: 0d60 2a3d ad7a a13d 4df4 a03d ca9a 5f3d
00000030: b27d 843d 7e5e 903d a4f5 c33d 0068 4e3d
00000040: 77bb 253d 0d64 233d cc25 1e3d fe73 583d
00000050: 1fe3 cb3d ab5c a33d 2476 8d3d a425 903d
00000060: b82e 213d b071 ec3d 02ff 3f3d a2f1 513d
00000070: e54d 8a3d 3ca2 673d 63c5 d03d 79c0 fa3d
00000080: fa31 c93d 934a c63d 1496 0b3e b45e 6d3d
00000090: a046 873d dbfa df3d 2d17 6e3d fcf5 013e
000000a0: c9ba a63d 1a16 7d3d 5473 ab3d 1f41 a53d
000000b0: cd7b 1d3e c7f4 143e 0df3 ae3d 4936 473d
000000c0: 2102 9a3d 73bb 6a3d d89e aa3d 6a68 8e3d
000000d0: 6806 353d 7834 253d c6d9 a53d 8554 103d
000000e0: c5aa a23d 9092 933d a953 af3d 79f8 b03d
000000f0: ac02 ca3d b591 b33d 12bd b83d 5efa bb3d
0.064156406 0.16069007 0.065200314 0.07002961 0.08935998 0.07381432 0.10889185 0.084082924
0.041595507 0.07884727 0.07859097 0.054590978 0.06469287 0.07049273 0.095683366 0.05039215
0.040461984 0.039890338 0.038610265 0.052844994 0.09955429 0.079766594 0.06907299 0.070384294
0.039351195 0.11545122 0.046874054 0.05125583 0.067531385 0.056551203 0.101938985 0.122437425
0.098239854 0.09682193 0.13631469 0.057951644 0.066052675 0.10936519 0.05812757 0.12691492
0.08141095 0.061788656 0.083716065 0.080690615 0.15379258 0.145465 0.08542452 0.048635755
0.07519937 0.05730767 0.08331078 0.06953509 0.044195563 0.04033324 0.080981776 0.035236854
0.07942728 0.07205689 0.08560879 0.086411424 0.09863791 0.08768026 0.09020437 0.09178613

gnn_layers.0.edge_mlp.3.weight f4 [64, 64]
00000000: fdda be3d fc14 2a3d 4410 61bd 9854 0d3e
00000010: 8584 a73d 931b ddbd 72fa e4b9 9b7e ddbd
00000020: ed22 903d 376c e3bd 16cb 9a3d 0a38 1f3e
00000030: 9377 4abc 90f3 49bd 3b1a c0bc 7550 3ebd
00000040: ed29 5d3c fa38 aebd 9bb5 1c3e 3399 c6bb
00000050: a3f8 b83d a464 5c3c 9149 f4bd 29d9 623e
00000060: ca0c 8bbe 3bd0 9a3d c5f1 7bbd ccbe e13b
00000070: a6b9 b33d 3772 7c3c ecd8 0a3e 9025 c83c
00000080: 5534 133d 70a5 09bd c976 973c 50ef 0c3e
00000090: 34b5 613b 6a39 d8bd f0d1 c8bd 78f7 4cbd
000000a0: 1ed8 ce3d 88b3 12be 7a5b 3cbe 913b 01be
000000b0: 5d48 523e 61cf bbbd 33b8 c8bd 13f4 483e
000000c0: 9e36 08be 5acc 96bd 5f97 3cbe 35f3 a7bd
000000d0: 34d7 f53d 6eca 023e 28b3 bcbd ecf6 02bd
000000e0: c89f 6c3c 975f 023e f5c1 4abd c04e 5dbe
000000f0: ab2f 243d 728d 13be 01ac eabc c479 e9bd
00000100: cea9 a2bc ed51 71bc f21e 653d d5ec 45bc
00000110: b8e0 e6bd b001 383e 71cb f83d f1a8 ec3d
00000120: 9555 083e 0250 ffbd 1200 cdbd c27e 803d
00000130: 4b3f a4bc fcae 33be 37a4 253e 49c3 093e
00000140: 2d7f 933d 229b b23d 2767 a03d 10ca 8a3d
00000150: 8075 663d 0d68 ffbd 4cb5 cebd 9043 2f3c
00000160: 01a9 f2bb 9556 19be 723a a2bd d1d3 8fbd
00000170: 6199 223c 501a 773b a628 d0bd 5c2c d2bd
00000180: e69b b13d 83f1 8c3b 54ae 3cbd 9522 53bd
00000190: 1d05 113e 6c95 ffbd 0315 9e3c 285e 9abd
000001a0: 2869 c1bd 1d18 803d e265 083c dc48 843d
000001b0: dcda a9bd a178 6abd 4fdf 7abd 0e4f e4bd
000001c0: 9bdf 4bbc 0eaf c53d 7d04 513d 1133 933d
000001d0: 2f48 b93c 2cd1 f93c bf23 953c 6c6b 1f3e
000001e0: 8847 81bb a0b5 60bd 5159 a2bc 3d67 423e
000001f0: 11c4 013e 0b81 993d 109c 3dbc 11de 51bd
00000200: a59e 11be 52d6 793d b5d8 5b3e 1bcf e3bc
00000210: e1a8 15be 8765 fcbd f2c9 bc3d 621d 9c3e
00000220: e9c5 9abd 5825 893d b9ad 3abd ddbc 7dbd
00000230: 9203 f0bd e28c 2a3e 51eb 14be 969f ddbd
00000240: d1e2 cbbb df63 9abc e179 c83c 455c 2ebd
00000250: 3292 103d 8584 bbbd 8370 ac3c 86d0 21bd
00000260: bcc8 36bd a06f 2dbd 3fef 183e 1e56 53be
00000270: 3f91 d7bd 2bc5 00ba e794 f03c 288f 273c
00000280: 12fb a5bb eda4 b4bd e425 a2bd bf3c 853e
00000290: 94eb ae3d 6f88 463d 2658 bbbd 9a32 94bc
000002a0: a4b8 50be 2247 903e 6940 8a3d 86f0 07bd
000002b0: 09ff dabd 0b0f 943c 3c18 06be 4733 36bd
000002c0: 7f43 93bd 54db b4bd 8c69 f5bd b418 6ebd
000002d0: 9dd5 aa3d bc77 9ebd 98dd 98bd fc49 2ebe
000002e0: 16ac 4c3e cbaf 12bb 9278 bbbd addc d1bd
000002f0: 01cc 1b3d cdbf d73d bee8 313e 992b acbd
00000300: cadf c63d 60b1 6f3d a791 b83d 65b8 78bd
00000310: 490a bcbd 5939 8d3d 8720 81bc 0a39 573d
00000320: 2a3a 12bc 7024 993d 3c30 08be dfb4 a03c
00000330: 52b1 78bd 1bb7 e13c cc75 cebd 5369 a83d
00000340: f41d 4d3c 0084 1ebe 3dc0 0bbd ec40 dbbc
00000350: 4bcb 0e3b c038 9f3c c229 2abe 4bd8 05bd
00000360: 1910 113e 993a 43bd 2670 a8bd 23a6 eebd
00000370: 13b0 473d a1eb b9bb 5807 05be f077 c4bd
00000380: ed1e d13d 0e73 803e 110b 923c 5e0c edbd
00000390: a463 ee39 986e 923d 29cc 74bc 8b89 853d
000003a0: ae93 093e 1deb 673c 2a96 813d d894 c43d
000003b0: afe6 d3bd 30e9 c03c 805f ce3c d0fa d53d
000003c0: f3b4 40bd c83d 27be 8da8 60bd b68d 943d
000003d0: abe6 25be 8d7e 81bd 5e1f e7bd 6fa5 a5bd
000003e0: 7e25 e13c 7b5f 773d 5ccd 1dbd 2f9a 0a3e
000003f0: 8918 86bc 018a 013e d19d b73d a460 213e
0.093191124 0.04152392 -0.054947153 0.13801801 0.08179573 -0.10796275 -0.00043674145 -0.10815164
0.070379116 -0.11104625 0.07558267 0.15548721 -0.01235761 -0.049304545 -0.023450008 -0.04646345
0.013498765 -0.08506961 0.15303652 -0.0060607432 0.09031799 0.013451729 -0.11928094 0.22153153
-0.27158195 0.07559248 -0.061509866 0.0068892 0.08775644 0.01540809 0.13559312 0.024431974
0.03593858 -0.03360504 0.018489258 0.13763165 0.003444028 -0.10557826 -0.098056674 -0.050040692
0.10099815 -0.14326298 -0.1839427 -0.12620379 0.20535417 -0.09170414 -0.09800758 0.19624357
-0.13302085 -0.07363196 -0.18417118 -0.08200685 0.12003937 0.12772533 -0.09213859 -0.031973764
0.014442392 0.12731777 -0.049501378 -0.21612072 0.040084522 -0.14409426 -0.028646471 -0.11400178
-0.01985636 -0.014729005 0.055937715 -0.012080391 -0.112733305 0.17969394 0.12148178 0.115556605
0.13313897 -0.12466432 -0.10009779 0.06274177 -0.020049712 -0.1754722 0.16175924 0.13453402
0.07201991 0.087209955 0.07832175 0.067768216 0.0562644 -0.12471018 -0.100931734 0.0106972605
-0.0074054007 -0.14974435 -0.07921304 -0.07022823 0.009924264 0.0037704892 -0.10164003 -0.10262367
0.086723134 0.0043012514 -0.04606469 -0.051546652 0.14162107 -0.12479672 0.019297129 -0.0753749
-0.09443885 0.06254599 0.008325072 0.06459209 -0.08293697 -0.057243947 -0.06124812 -0.11147891
-0.012443448 0.0965253 0.05102967 0.071874745 0.022617428 0.030495249 0.018205522 0.15568322
-0.003945295 -0.05486071 -0.01981798 0.18984695 0.1267245 0.07495316 -0.011572853 -0.05123717
-0.14220674 0.060995407 0.21469386 -0.027808717 -0.14615203 -0.12324052 0.092182055 0.30491167
-0.075572796 0.06696576 -0.04557583 -0.061947692 -0.11719431 0.16655305 -0.14542891 -0.10821454
-0.006222107 -0.01884645 0.024472179 -0.042568464 0.035295673 -0.091561355 0.021049744 -0.039505504
-0.04462503 -0.042342782 0.14935015 -0.2063832 -0.1052575 -0.0004912193 0.029367877 0.010227002
-0.0050653303 -0.088205196 -0.07917383 0.26022908 0.08541027 0.048469957 -0.09147672 -0.018090535
-0.20382935 0.2817927 0.067505665 -0.033188365 -0.10693175 0.01807358 -0.13095182 -0.044482496
-0.07190608 -0.08830896 -0.11983022 -0.058129027 0.08341525 -0.07737681 -0.07464141 -0.1702041
0.1998752 -0.0022382613 -0.09153856 -0.10247169 0.03803635 0.1053463 0.1737394 -0.08406753
0.09710653 0.058518767 0.09012156 -0.060722727 -0.09181649 0.06895704 -0.01576258 0.05254463
-0.008925 0.07477653 -0.1329965 0.019617496 -0.06071598 0.027553132 -0.10081062 0.08223214
0.012519348 -0.15480042 -0.03411888 -0.026764356 0.0021788653 0.01943624 -0.16617492 -0.032676976
0.14166297 -0.047663305 -0.082245156 -0.11652782 0.0487519 -0.005673841 -0.12991083 -0.09593189
0.10210977 0.2508778 0.017827542 -0.115746245 0.00045469136 0.0715 -0.014941254 0.06520375
0.13435242 0.0141551765 0.0632747 0.09598702 -0.10346734 0.023548692 0.025192022 0.10448229
-0.047047567 -0.16332161 -0.054848243 0.07253592 -0.16201274 -0.06322966 -0.1128528 -0.080881946
0.027483698 0.06039379 -0.038525924 0.13535379 -0.016369121 0.126503 0.08965648 0.15759522

gnn_layers.0.edge_mlp.3.bias f4 [64]
00000000: dcdd ad3c 89e2 8dbd 1ad0 803d 9d32 1b3d
00000010: e16f 333d fdf3 383d 9e3e 173e 37ad 733e
00000020: 1df0 f23d 91ea 41bd 8e0c 853d abf4 7f3e
00000030: d1e3 bebd f00d 08be 6c79 1cbe 1f60 6a3e
00000040: 16aa 33be 16ed 05bc d910 473b 5246 713e
00000050: f51d 5abd ac6a 38bd cccc 073e 1e83 373e
00000060: 4abd e53c e754 31be cdad 023e 3288 12be
00000070: 7557 333d d9f9 713d 36d2 a93d 3546 0ebd
00000080: afc3 d23c 38f6 2f3e e822 79be c8b6 2e3e
00000090: ee0d 9f3d 338f 163e 8988 22be 6c39 cf3c
000000a0: cebd 5cbe 21db a6bd 0013 89bd b693 803d
000000b0: 8d23 d03d 9162 19be b80f 113e 4a6d d53d
000000c0: f3e2 d13d 4b93 4fbe 4800 423c 78bb 85bd
000000d0: 7a43 bdbd 95dd 3b3c 3956 b3bd 583d 59bd
000000e0: f725 22be 77d9 a4bc 7a4b 013c 43af 2f3e
000000f0: e243 29be 4424 31be 0fb5 4a3c 34e8 cc3d
0.021223955 -0.06927974 0.06289692 0.037890065 0.043807868 0.04515456 0.1476998 0.23796545
0.11862204 -0.04734284 0.06496535 0.24995677 -0.09320796 -0.13286567 -0.15280694 0.2288823
-0.17545351 -0.0081742015 0.0030375032 0.23561981 -0.053251226 -0.045023605 0.13261718 0.17921111
0.028044362 -0.17317544 0.12761612 -0.14309767 0.043784577 0.059076164 0.08292048 -0.034734923
0.025728075 0.17183769 -0.24329722 0.17061913 0.07766329 0.14703064 -0.15872397 0.025295936
-0.2155678 -0.08147264 -0.06693077 0.062781736 0.10163031 -0.14979006 0.14166152 0.10421236
0.10248365 -0.20271032 0.011840887 -0.065298975 -0.09241386 0.0114664035 -0.0875668 -0.053037018
-0.15834795 -0.020123227 0.00789153 0.17156701 -0.16529801 -0.1729899 0.012372269 0.10005227
