models/best_model.pth (torch, 511477 bytes, 87 tensors)

node_embedding.weight f4 [64, 160]
-0.03763008 0.06561789 0.07198143 -0.066264205 -0.0071386923 0.033458725 -0.118132636 0.06387617
0.21097203 -0.057998396 -0.2787427 -0.06384907 -0.2972268 -0.022872206 -0.07180798 0.08515707
0.128521 0.01168532 -0.22610223 -0.02220402 -0.03642443 -0.1928266 0.13482717 -0.017346712
-0.023276147 -0.117230736 -0.00731238 0.10091867 -0.08593077 0.20568033 0.071397044 -0.077355824
0.25664124 -0.024383755 0.057681065 0.048853233 0.012321085 0.16388242 0.06317262 -0.31821707
-0.027957365 0.13365074 0.03327171 0.1420744 -0.0984653 -0.35731006 -0.16487186 0.10719634
0.16038682 -0.16271625 -0.18384667 -0.031774428 -0.061905507 0.06486929 0.13739368 0.20936641
0.1171416 -0.27835608 -0.27243063 -0.47589746 0.0049777194 0.07461826 0.024377365 -0.14917688
0.024224333 -0.06670032 0.065569185 -0.0468572 -0.0471494 -0.047152247 -0.26926208 0.026345814
0.076072596 -0.12993903 0.07651284 -0.061851285 -0.42887634 -0.0053967517 0.028308382 0.02003672
-0.04082701 -0.124488056 -0.10929782 -0.03195517 0.04798154 -0.018760262 0.0452242 -0.061424714
-0.039896067 0.024102598 0.016713234 -0.020156259 0.04712343 0.053743638 -0.057329986 -0.042205986
0.07238943 -0.026676381 -0.028026981 -0.076495074 -0.045273557 0.019748714 -0.010434977 -0.057386324
0.0018544144 -0.054002333 -0.06707165 -0.043533705 -0.06919159 -0.050338563 0.07902602 0.014931876
0.024362164 -0.07373517 -0.051922526 -0.026314562 0.012362222 -0.06956389 -0.06412244 -0.08245615
0.08387101 -0.0099536115 -0.1317218 -0.053571332 -0.054264303 -0.046121962 -0.027060987 -0.062398132
0.06628686 -0.01568996 0.06802034 0.024632726 -0.07831121 0.24019367 -0.11694317 -0.2150439
-0.011336418 -0.039846998 -0.21915852 -0.11029479 0.09813703 -0.12394919 -0.014093816 -0.058032043
0.09848249 0.029754 0.016236782 0.044004116 -0.010630831 -0.08748301 0.02982706 0.018541008
0.021149227 -0.07437339 0.0720097 -0.05802388 0.042252082 0.027783738 0.011935443 -0.028987303
0.12662315 0.017372794 -0.06702778 -0.055550266 -0.042143907 0.042537127 -0.044642545 0.09964017
0.04844401 -0.04374034 -0.17330745 0.058406327 0.133341 0.114912994 -0.13014033 0.076361544
-0.09567233 0.028194273 -0.06042326 0.0053334665 0.018361028 0.060915872 0.007594939 -0.10938622
0.016899636 0.043731432 -0.04130863 -0.14471632 -0.011793816 0.002855528 -0.013965732 0.08789131
0.034718774 0.15583871 -0.07962556 -0.017700601 0.0011536218 0.15671185 0.1559319 0.0042992495
-0.16941693 -0.20609061 0.06657618 -0.0269901 -0.07386404 -0.18862207 -0.06895573 -0.13545439
-0.014058891 -0.21105585 -0.018002464 -0.14240524 0.02556319 -0.047541875 -0.14981993 0.11816634
-0.019109277 -0.22334945 0.018637277 -0.09601561 -0.05117005 0.092881374 -0.03594733 0.07292804
-0.07864618 0.18080334 0.059896275 0.028812159 -0.055124365 -0.07802445 -0.2251579 0.05895278
0.037955694 0.15646613 0.030960798 0.020008693 0.04614848 -0.05280176 -0.06773379 -0.16160572
0.032362904 -0.10925374 0.13799049 -0.045497686 -0.0144060375 -0.055643033 -0.051657043 0.026224043
-0.023495438 0.048805263 -0.02536216 -0.057993583 -0.013948722 -0.038322646 -0.024186805 -0.07526186
00000000: 0022 1abd ac62 863d 006b 933d 87b5 87bd
00000010: b1eb e9bb 040c 093d 86ef f1bd 82d1 823d
00000020: 0d09 583e ba8f 6dbd 5db7 8ebe 4dc3 82bd
00000030: 1c2e 98be 7e5e bbbc 1010 93bd d466 ae3d
00000040: 029b 033e c973 3f3c 5887 67be 34e5 b5bc
00000050: c831 15bd 5674 45be 2210 0a3e b11a 8ebc
00000060: 9ead bebc ab16 f0bd b09c efbb 73ae ce3d
00000070: 79fc afbd dd9d 523e 9d38 923d bb6c 9ebd
00000080: 7b66 833e 71c0 c7bc fb42 6c3d 541a 483d
00000090: 60de 493c cbd0 273e a660 813d 59ed a2be
000000a0: d806 e5bc bddb 083e eb47 083d f47b 113e
000000b0: 2da8 c9bd 58f1 b6be 2bd4 28be c189 db3d
000000c0: 713c 243e 179f 26be 4d42 3cbe e725 02bd
000000d0: a190 7dbd 31da 843d eeb0 0c3e 2664 563e
000000e0: efe7 ef3d b084 8ebe 077c 8bbe d5a8 f3be
000000f0: 231c a33b 75d1 983d 0ab3 c73c d3c1 18be
00000100: 1c72 c63c 2d9a 88bd 2349 863d 56ed 3fbd
00000110: bb1f 41bd b722 41bd b8dc 89be 2dd3 d73c
00000120: f3cb 9b3d bd0e 05be c4b2 9c3d c657 7dbd
00000130: ae95 dbbe 3cd7 b0bb fbe6 e73c 0c24 a43c
00000140: 393a 27bd 98f3 febd 89d7 dfbd 6de3 02bd
00000150: 4b88 443d 1faf 99bc 033d 393d 7b98 7bbd
00000160: 0f6a 23bd d072 c53c 31ea 883c bd1e a5bc
00000170: 7f04 413d 4a22 5c3d d9d2 6abd 2fe0 2cbd
00000180: e940 943d 6d88 dabc d798 e5bc 73a9 9cbd
00000190: c470 39bd 0ec8 a13c 77f7 2abc ec0d 6bbd
000001a0: d20f f33a 8d31 5dbd dc5c 89bd 6650 32bd
000001b0: 52b4 8dbd cf2f 4ebd 65d8 a13d d4a4 743c
000001c0: 2993 c73c 7702 97bd b7ac 54bd a391 d7bc
000001d0: eb8a 4a3c 8377 8ebd a052 83bd c5de a8bd
000001e0: 90c4 ab3d 7914 23bc 14e2 06be 9d6d 5bbd
000001f0: 3f44 5ebd 62ea 3cbd 01af ddbc 2f95 7fbd
00000200: 68c1 873d 3b88 80bc 3f4e 8b3d 92ca c93c
00000210: a161 a0bd 54f5 753e e77f efbd 7834 5cbe
00000220: 62bc 39bc 9b36 23bd 176b 60be 3ce2 e1bd
00000230: 11fc c83d 13d9 fdbd c0e9 66bc 02b3 6dbd
00000240: 30b1 c93d a9be f33c 0003 853c a93d 343d
00000250: f02c 2ebc 4b2a b3bd e157 f43c 50e3 973c
00000260: 2541 ad3c 1351 98bd d279 933d 73aa 6dbd
00000270: 8510 2d3d b99a e33c e08c 433c c876 edbc
00000280: 80a9 013e 6451 8e3c dc45 89bd ad88 63bd
00000290: 179f 2cbd 693b 2e3d 1adb 36bd 2510 cc3d
000002a0: 3a6d 463d 1229 33bd 8277 31be 793b 6f3d
000002b0: 8b8a 083e 8157 eb3d 8243 05be 7163 9c3d
000002c0: dbef c3bd adf7 e63c 617e 77bd 5cc4 ae3b
000002d0: de69 963c ec82 793d f7de f83b e205 e0bd
000002e0: 1b71 8a3c bb1f 333d 3d33 29bd 8430 14be
000002f0: da3a 41bc cf23 3b3b 87d0 64bc 5c00 b43d
00000300: 4635 0e3d 2f94 1f3e ba12 a3bd da00 91bc
00000310: 2035 973a 1279 203e 9dac 1f3e b8e0 8c3b
00000320: a27b 2dbe 6b09 53be 1859 883d 581a ddbc
00000330: 0846 97bd 2526 41be a938 8dbd 8eb4 0abe
00000340: 4357 66bc 061f 58be e779 93bc aed2 11be
00000350: e569 d13c 45bb 42bd 656a 19be 3201 f23d
00000360: 0f8b 9cbc b8b5 64be 34ad 983c d5a3 c4bd
00000370: b097 51bd 9738 be3d 823d 13bd 4c5b 953d
00000380: 4011 a1bd 8324 393e cc55 753d 7a07 ec3c
00000390: 16ca 61bd 48cb 9fbd cb8f 66be 7878 713d
000003a0: 6e77 1b3d a838 203e 80a1 fd3c 45e9 a33c
000003b0: 3006 3d3d a946 58bd 03b8 8abd f87b 25be
000003c0: f78e 043d 6dc0 dfbd 614d 0d3e c85b 3abd
000003d0: 4d07 6cbc f3e9 63bd 5696 53bd ced3 d63c
000003e0: 8179 c0bc 07e8 473d 4ec4 cfbc ae8a 6dbd
000003f0: 2e89 64bc 35f8 1cbd 6823 c6bc e422 9abd

node_embedding.bias f4 [64]
-0.03765959 -0.052341234 -0.0037120131 0.039829463 -0.02620038 0.021229103 -0.10505914 -0.039532624
-0.07572588 -0.060095247 -0.05791985 0.032970145 0.0622251 -0.023212306 0.07929071 -0.029847048
0.14430572 -0.023902716 -0.06806901 0.033193193 -0.072306715 -0.16925354 0.07915797 0.07447388
-0.019002633 0.006802953 -0.1378143 -0.0763545 -0.014013807 -0.038334683 0.08381402 0.13049209
-0.019530054 -0.033900864 -0.03615587 -0.009362325 0.06796417 0.05299232 -0.03279444 -0.030554546
-0.032427628 0.039887313 -0.012385442 -0.020904148 0.074665554 -0.03152243 -0.099576585 -0.0035963904
-0.123609945 -0.15641178 -0.07687776 0.10067734 -0.050477337 0.011765261 -0.12426241 0.040070124
0.03628356 0.08473624 -0.04483688 0.046546713 -0.008704136 0.020832796 -0.017905489 0.0849411
00000000: f140 1abd c363 56bd 3f45 73bb 3824 233d
00000010: 2ea2 d6bc a8e8 ad3c 3f29 d7bd f6ec 21bd
00000020: 2c16 9bbd 6f26 76bd 5d3d 6dbd b40b 073d
00000030: bfdf 7e3d bc27 bebc 2b63 a23d cc81 f4bc
00000040: e1c4 133e a1cf c3bc c467 8bbd 96f5 073d
00000050: 8b15 94bd cd50 2dbe 931d a23d c385 983d
00000060: 69ab 9bbc 4eeb de3b 311f 0dbe c05f 9cbd
00000070: 2b9a 65bc d404 1dbd afa6 ab3d b89f 053e
00000080: 7efd 9fbc a2db 0abd 2d18 14bd 7064 19bc
00000090: cc30 8b3d 7a0e 593d 7653 06bd 874d fabc
000000a0: d5d2 04bd e160 233d 4fec 4abc 2d3f abbc
000000b0: 41ea 983d aa1d 01bd cfee cbbd 6bb1 6bbb
000000c0: 3627 fdbd 692a 20be 1672 9dbd ec2f ce3d
000000d0: 53c1 4ebd 15c3 403c 4a7d febd 9220 243d
000000e0: 129e 143d 328a ad3d e0a6 37bd c4a7 3e3d
000000f0: cb9b 0ebc 8aa9 aa3c 88ae 92bc 99f5 ad3d

gnn_layers.0.node_mlp.0.weight f4 [64, 64]
0.03989598 -0.010715395 0.04060422 -0.123124674 -0.08550407 -0.052561253 -0.113155395 -0.09440401
-0.09613444 0.035884425 0.03786975 -0.0030106753 -0.028891563 0.0033703297 0.075531155 -0.094122246
0.088806525 0.054366052 -0.04363388 0.087702125 -0.00010353327 -0.057284057 0.11264776 0.036945045
0.09433335 -0.033920527 -0.10711345 0.10024223 0.00723134 0.059363544 -0.032399803 0.059121996
-0.09876801 0.0044092685 0.09491247 -0.03356555 0.10736184 0.045968637 0.061619982 0.12351462
-0.030413806 -0.02910076 0.0786041 -0.063258484 -0.09216483 0.08150615 -0.10906452 -0.0592003
0.030288443 0.018407345 -0.07577951 -0.03162372 0.080238506 -0.080996454 0.07169993 -0.013385966
-0.0447437 -0.11907537 -0.032786503 0.10278466 -0.068478525 -0.09920548 -0.009752557 0.08861114
-0.03390771 0.122537225 0.12040104 0.114522636 -0.07149722 -0.08898078 -0.117148206 -0.024306148
-0.08140503 0.058233812 0.011273429 0.099139035 -0.11595869 -0.10504046 -0.023261204 0.032945275
0.10524283 -0.01045078 0.10682295 -0.033839434 -0.017645702 -0.048131317 -0.0531255 -0.047353536
-0.108052656 -0.015344411 -0.04214853 -0.08092934 -0.09271881 -0.12054174 -0.028010577 -0.10176836
0.11238687 -0.03355424 0.0335999 -0.08961728 0.012754694 -0.117480054 0.05627404 0.05903296
-0.12147105 0.054507583 0.015914127 -0.07807015 -0.057229474 0.12286526 -0.065018624 0.10936749
0.025155008 0.057270825 -0.062917456 0.040632874 0.026915103 0.09969325 -0.12361053 -0.045446515
0.003112644 -0.08971833 0.02130282 0.080596164 0.07532887 -0.06445557 0.05052817 -0.09095386
0.07770413 -0.1021664 -0.11332396 0.04338114 -0.011800155 0.030812487 0.11631124 0.11974506
0.07048136 -0.11339043 -0.01924549 0.013664246 -0.12171689 0.104535565 0.082026854 -0.057742834
-0.02608706 -0.07250604 0.04807797 0.02155815 -0.04333636 0.066828445 -0.027020797 0.013423756
0.08654651 -0.058729753 -0.115287066 0.06746574 -0.08169119 0.04725489 -0.037580177 0.08391003
-0.004754305 -0.05691442 -0.08818138 0.08399682 -0.0782136 0.035434097 0.09559442 -0.100409746
-0.104912415 0.01275216 -0.0490686 -0.09176068 0.08265635 -0.116283685 -0.056993037 -0.103830606
0.033037767 0.010781035 0.052140027 0.052334458 -0.00049446523 -0.037537724 0.11053024 0.0051982403
0.029760286 -0.10292874 -0.12251164 -0.061055303 -0.06550053 0.03621596 -0.05555895 0.0130542815
0.11583619 -0.036873594 0.031935677 0.0015329868 0.08225982 0.054670766 -0.005807355 0.068369895
-0.006359741 -0.02125001 -0.04872386 -0.1019728 0.104415774 -0.07921241 -0.11916366 -0.056066588
0.025250196 -0.011343792 0.056904644 0.07161647 0.07351385 -0.10487838 0.05096194 0.06187503
-0.06934503 0.0006054789 0.01873526 0.015674427 0.067076504 0.106126115 0.12005922 0.027986854
0.07309954 0.053444132 -0.06762451 0.083601296 -0.00888136 0.051012278 -0.08296226 0.10000664
0.027898014 0.028326303 -0.1111999 -0.010863602 -0.043710455 0.11801453 -0.11444001 -0.030847028
-0.0619988 -0.09061499 0.04807739 -0.08630344 0.059087455 0.015003845 -0.06617728 -0.014225125
0.010840103 -0.05570811 -0.08031364 -0.07044229 0.030159488 -0.11014269 0.07870966 0.08209309
00000000: f869 233d a08f 2fbc 9c50 263d ca28 fcbd
00000010: c21c afbd 784a 57bd 04be e7bd e456 c1bd
00000020: 22e2 c4bd 8cfb 123d 501d 1b3d c04e 45bb
00000030: 00ae ecbc c0e0 5c3b 14b0 9a3d 2ac3 c0bd
00000040: 32e0 b53d f0ae 5e3d 70b9 32bd 2c9d b33d
00000050: 0020 d9b8 b0a2 6abd deb3 e63d b053 173d
00000060: d831 c13d 40f0 0abd 4c5e dbbd cc4b cd3d
00000070: e0f4 ec3b 3027 733d a8b5 04bd e829 723d
00000080: e246 cabd a07b 903b 7861 c23d 087c 09bd
00000090: 86e0 db3d 9c49 3c3d 3c65 7c3d 3cf5 fc3d
000000a0: 6026 f9bc b864 eebc 30fb a03d aa8d 81bd
000000b0: eac0 bcbd b2ec a63d 385d dfbd 047c 72bd
000000c0: 781f f83c 00cb 963c 4a32 9bbd e087 01bd
000000d0: 1654 a43d 78e1 a5bd 6ad7 923d d050 5bbc
000000e0: 2c45 37bd cadd f3bd 244b 06bd c480 d23d
000000f0: 783e 8cbd 3e2c cbbd 30c9 1fbc c279 b53d
00000100: d0e2 0abd ccf4 fa3d d294 f63d d88a ea3d
00000110: 226d 92bd 8e3b b6bd 66eb efbd b01d c7bc
00000120: aeb7 a6bd 9486 6e3d 30b4 383c 6809 cb3d
00000130: c07b edbd 741f d7bd 488e bebc a0f1 063d
00000140: 8e89 d73d c039 2bbc fec5 da3d 389b 0abd
00000150: b88d 90bc 5825 45bd 209a 59bd c8f5 41bd
00000160: b64a ddbd 2067 7bbc f0a3 2cbd 48be a5bd
00000170: 5ce3 bdbd 96de f6bd 7076 e5bc ee6b d0bd
00000180: 162b e63d 2c70 09bd 0ca0 093d 4489 b7bd
00000190: 10f9 503c 6299 f0bd 9c7f 663d 8ccc 713d
000001a0: d0c5 f8bd 5843 5f3d 585e 823c 3ee3 9fbd
000001b0: 7469 6abd c8a0 fb3d 7c28 85bd 10fc df3d
000001c0: e011 ce3c d094 6a3d deda 80bd a86e 263d
000001d0: 107d dc3c fa2b cc3d 8427 fdbd 2026 3abd
000001e0: 80fd 4b3b 3ebe b7bd 4083 ae3c 9a0f a53d
000001f0: 0646 9a3d 4801 84bd a0f6 4e3d 0446 babd
00000200: 5823 9f3d 9e3c d1bd 6416 e8bd 6cb0 313d
00000210: 7055 41bc 786a fc3c 9634 ee3d e63c f53d
00000220: 8858 903d 3e39 e8bd b8a8 9dbc 00e0 5f3c
00000230: b446 f9bd be16 d63d b2fd a73d c083 6cbd
00000240: 88b4 d5bc 0c7e 94bd 68ed 443d b89a b03c
00000250: 7881 31bd 5add 883d b85a ddbc 50ef 5b3c
00000260: 4c3f b13d 9c8e 70bd a01b ecbd 7a2b 8a3d
00000270: b64d a7bd 588e 413d aced 19bd 06d9 ab3d
00000280: 00ca 9bbb 181f 69bd 7098 b4bd 8606 ac3d
00000290: 742e a0bd 5823 113d 02c7 c33d a0a3 cdbd
000002a0: 52dc d6bd 70ee 503c 28fc 48bd 06ed bbbd
000002b0: bc47 a93d 2426 eebd 8871 69bd 24a5 d4bd
000002c0: 9c52 073d f0a2 303c c890 553d a85c 563d
000002d0: 009f 01ba 28c1 19bd ae5d e23d 0056 aa3b
000002e0: d8cb f33c 4ecc d2bd 62e7 fabd 2015 7abd
000002f0: 2425 86bd 3057 143d c891 63bd a0e1 553c
00000300: 863b ed3d c408 17bd fcce 023d 80ee c83a
00000310: d677 a83d 74ee 5f3d a04b bebb 8405 8c3d
00000320: 6065 d0bb 8014 aebc ac92 47bd 1ed7 d0bd
00000330: f0d7 d53d 1e3a a2bd 140c f4bd 14a6 65bd
00000340: 80d9 ce3c 50db 39bc d814 693d a8ab 923d
00000350: 6e8e 963d 7aca d6bd 78bd 503d ac70 7d3d
00000360: c404 8ebd 00b9 1e3a b07a 993c a867 803c
00000370: 685f 893d a658 d93d 9ce1 f53d b044 e53c
00000380: 36b5 953d 3ce8 5a3d b87e 8abd 2837 ab3d
00000390: 2083 11bc 40f2 503d 1ee8 a9bd 48d0 cc3d
000003a0: 608a e43c 900c e83c c6bc e3bd 40fd 31bc
000003b0: bc09 33bd 9ab1 f13d 865f eabd e8b2 fcbc
000003c0: 74f2 7dbd 5a94 b9bd ccec 443d dcbf b0bd
000003d0: b005 723d b0d2 753c f487 87bd 8010 69bc
000003e0: b09a 313c 302e 64bd 7a7b a4bd 0c44 90bd
000003f0: 0811 f73c 7e92 e1bd 8832 a13d 6c20 a83d

gnn_layers.0.node_mlp.0.bias f4 [64]
-0.007865086 0.075133055 0.048079863 0.12421188 0.0525762 -0.079748556 0.081990436 -0.059666872
-0.099805236 -0.10068771 0.12409635 0.029438078 0.052015156 -0.053867847 -0.10026255 0.034945756
-0.102473766 0.026331708 -0.016574964 0.012401193 0.07927643 -0.11283158 0.054168582 -0.056686074
-0.0235665 -0.064466774 -0.04174365 0.047515944 0.062050417 -0.100331664 0.020963237 -0.00017127395
0.08282772 -0.00048345327 0.11594856 0.09948373 -0.11190434 0.10028562 0.009292036 -0.01240471
-0.07616055 -0.077765256 0.036798194 -0.0491789 0.045179516 -0.016519621 -0.029291451 0.07506694
-0.08954875 -0.04333742 0.08642231 0.067096174 0.12179673 0.09398998 -0.083866075 0.071496725
0.010391906 0.088127 -0.030086264 0.06639925 -0.029141203 0.056120396 -0.06180054 0.062188715
00000000: 90dc 00bc 5cdf 993d 64ef 443d cc62 fe3d
00000010: 245a 573d 3653 a3bd 9aea a73d 4065 74bd
00000020: b066 ccbd 5c35 cebd 3a26 fe3d 2028 f13c
00000030: d80d 553d 88a4 5cbd 7456 cdbd 4823 0f3d
00000040: c4dd d1bd 98b5 d73c 38c8 87bc 602e 4b3c
00000050: ae5b a23d 3e14 e7bd e0df 5d3d a82f 68bd
00000060: 880e c1bc 2807 84bd 64fb 2abd 14a0 423d
00000070: 9428 7e3d b07a cdbd 18bb ab3c 0098 33b9
00000080: 94a1 a93d 0078 fdb9 7076 ed3d 20be cb3d
00000090: 1a2e e5bd 8c62 cd3d a03d 183c 203d 4bbc
000000a0: 10fa 9bbd 6443 9fbd b4b9 163d d06f 49bd
000000b0: 280e 393d 2854 87bc a0f4 efbc b2bc 993d
000000c0: 5665 b7bd 9482 31bd 2efe b03d b869 893d
000000d0: 9070 f93d d27d c03d fac1 abbd e06c 923d
000000e0: d042 2a3c ee7b b43d 7877 f6bc 54fc 873d
000000f0: 88b9 eebc 80de 653d 9022 7dbd 98b9 7e3d

gnn_layers.0.node_mlp.1.weight f4 [64]
1.0 1.0 1.0 1.0 1.0 1.0 1.0 1.0
1.0 1.0 1.0 1.0 1.0 1.0 1.0 1.0
1.0 1.0 1.0 1.0 1.0 1.0 1.0 1.0
1.0 1.0 1.0 1.0 1.0 1.0 1.0 1.0
1.0 1.0 1.0 1.0 1.0 1.0 1.0 1.0
1.0 1.0 1.0 1.0 1.0 1.0 1.0 1.0
1.0 1.0 1.0 1.0 1.0 1.0 1.0 1.0
1.0 1.0 1.0 1.0 1.0 1.0 1.0 1.0
00000000: 0000 803f 0000 803f 0000 803f 0000 803f
00000010: 0000 803f 0000 803f 0000 803f 0000 803f
00000020: 0000 803f 0000 803f 0000 803f 0000 803f
00000030: 0000 803f 0000 803f 0000 803f 0000 803f
00000040: 0000 803f 0000 803f 0000 803f 0000 803f
00000050: 0000 803f 0000 803f 0000 803f 0000 803f
00000060: 0000 803f 0000 803f 0000 803f 0000 803f
00000070: 0000 803f 0000 803f 0000 803f 0000 803f
00000080: 0000 803f 0000 803f 0000 803f 0000 803f
00000090: 0000 803f 0000 803f 0000 803f 0000 803f
000000a0: 0000 803f 0000 803f 0000 803f 0000 803f
000000b0: 0000 803f 0000 803f 0000 803f 0000 803f
000000c0: 0000 803f 0000 803f 0000 803f 0000 803f
000000d0: 0000 803f 0000 803f 0000 803f 0000 803f
000000e0: 0000 803f 0000 803f 0000 803f 0000 803f
000000f0: 0000 803f 0000 803f 0000 803f 0000 803f

gnn_layers.0.node_mlp.1.bias f4 [64]
0.0 0.0 0.0 0.0 0.0 0.0 0.0 0.0
0.0 0.0 0.0 0.0 0.0 0.0 0.0 0.0
0.0 0.0 0.0 0.0 0.0 0.0 0.0 0.0
0.0 0.0 0.0 0.0 0.0 0.0 0.0 0.0
0.0 0.0 0.0 0.0 0.0 0.0 0.0 0.0
0.0 0.0 0.0 0.0 0.0 0.0 0.0 0.0
0.0 0.0 0.0 0.0 0.0 0.0 0.0 0.0
0.0 0.0 0.0 0.0 0.0 0.0 0.0 0.0
00000000: 0000 0000 0000 0000 0000 0000 0000 0000
00000010: 0000 0000 0000 0000 0000 0000 0000 0000
00000020: 0000 0000 0000 0000 0000 0000 0000 0000
00000030: 0000 0000 0000 0000 0000 0000 0000 0000
00000040: 0000 0000 0000 0000 0000 0000 0000 0000
00000050: 0000 0000 0000 0000 0000 0000 0000 0000
00000060: 0000 0000 0000 0000 0000 0000 0000 0000
00000070: 0000 0000 0000 0000 0000 0000 0000 0000
00000080: 0000 0000 0000 0000 0000 0000 0000 0000
00000090: 0000 0000 0000 0000 0000 0000 0000 0000
000000a0: 0000 0000 0000 0000 0000 0000 0000 0000
000000b0: 0000 0000 0000 0000 0000 0000 0000 0000
000000c0: 0000 0000 0000 0000 0000 0000 0000 0000
000000d0: 0000 0000 0000 0000 0000 0000 0000 0000
000000e0: 0000 0000 0000 0000 0000 0000 0000 0000
000000f0: 0000 0000 0000 0000 0000 0000 0000 0000

gnn_layers.0.node_mlp.1.running_mean f4 [64]
0.0 0.0 0.0 0.0 0.0 0.0 0.0 0.0
0.0 0.0 0.0 0.0 0.0 0.0 0.0 0.0
0.0 0.0 0.0 0.0 0.0 0.0 0.0 0.0
0.0 0.0 0.0 0.0 0.0 0.0 0.0 0.0
0.0 0.0 0.0 0.0 0.0 0.0 0.0 0.0
0.0 0.0 0.0 0.0 0.0 0.0 0.0 0.0
0.0 0.0 0.0 0.0 0.0 0.0 0.0 0.0
0.0 0.0 0.0 0.0 0.0 0.0 0.0 0.0
00000000: 0000 0000 0000 0000 0000 0000 0000 0000
00000010: 0000 0000 0000 0000 0000 0000 0000 0000
00000020: 0000 0000 0000 0000 0000 0000 0000 0000
00000030: 0000 0000 0000 0000 0000 0000 0000 0000
00000040: 0000 0000 0000 0000 0000 0000 0000 0000
00000050: 0000 0000 0000 0000 0000 0000 0000 0000
00000060: 0000 0000 0000 0000 0000 0000 0000 0000
00000070: 0000 0000 0000 0000 0000 0000 0000 0000
00000080: 0000 0000 0000 0000 0000 0000 0000 0000
00000090: 0000 0000 0000 0000 0000 0000 0000 0000
000000a0: 0000 0000 0000 0000 0000 0000 0000 0000
000000b0: 0000 0000 0000 0000 0000 0000 0000 0000
000000c0: 0000 0000 0000 0000 0000 0000 0000 0000
000000d0: 0000 0000 0000 0000 0000 0000 0000 0000
000000e0: 0000 0000 0000 0000 0000 0000 0000 0000
000000f0: 0000 0000 0000 0000 0000 0000 0000 0000

gnn_layers.0.node_mlp.1.running_var f4 [64]
1.0 1.0 1.0 1.0 1.0 1.0 1.0 1.0
1.0 1.0 1.0 1.0 1.0 1.0 1.0 1.0
1.0 1.0 1.0 1.0 1.0 1.0 1.0 1.0
1.0 1.0 1.0 1.0 1.0 1.0 1.0 1.0
1.0 1.0 1.0 1.0 1.0 1.0 1.0 1.0
1.0 1.0 1.0 1.0 1.0 1.0 1.0 1.0
1.0 1.0 1.0 1.0 1.0 1.0 1.0 1.0
1.0 1.0 1.0 1.0 1.0 1.0 1.0 1.0
00000000: 0000 803f 0000 803f 0000 803f 0000 803f
00000010: 0000 803f 0000 803f 0000 803f 0000 803f
00000020: 0000 803f 0000 803f 0000 803f 0000 803f
00000030: 0000 803f 0000 803f 0000 803f 0000 803f
00000040: 0000 803f 0000 803f 0000 803f 0000 803f
00000050: 0000 803f 0000 803f 0000 803f 0000 803f
00000060: 0000 803f 0000 803f 0000 803f 0000 803f
00000070: 0000 803f 0000 803f 0000 803f 0000 803f
00000080: 0000 803f 0000 803f 0000 803f 0000 803f
00000090: 0000 803f 0000 803f 0000 803f 0000 803f
000000a0: 0000 803f 0000 803f 0000 803f 0000 803f
000000b0: 0000 803f 0000 803f 0000 803f 0000 803f
000000c0: 0000 803f 0000 803f 0000 803f 0000 803f
000000d0: 0000 803f 0000 803f 0000 803f 0000 803f
000000e0: 0000 803f 0000 803f 0000 803f 0000 803f
000000f0: 0000 803f 0000 803f 0000 803f 0000 803f

gnn_layers.0.node_mlp.3.weight f4 [64, 64]
0.073427126 0.09501661 -0.06681335 -0.06806669 0.042458028 -0.08255537 -0.075163916 0.015743136
0.117902786 -0.08857934 -0.021729618 -0.09199886 -0.013299093 0.110553145 -0.09587267 0.084182754
0.068382606 0.016383365 0.082257256 0.061752066 0.039637655 0.017690226 -0.081289515 -0.11871685
0.08376542 -0.045667112 -0.11308329 -0.040852115 -0.088011354 0.10190067 0.09232995 -0.11126402
0.05077018 -0.05100918 0.11947428 0.011787459 -0.0076728463 0.049190402 -0.10721207 -0.04957995
0.10324551 0.10708399 -0.022003815 0.09406105 -0.10258375 -0.09850797 -0.025366828 -0.11701465
0.10747771 -0.018347874 -0.066610605 0.038279906 -0.021114603 0.07352477 0.071718395 -0.09217441
0.027712017 -0.025109142 0.06146343 -0.086969376 0.002023533 0.03775318 -0.09930116 0.03847821
-0.047965184 0.04638335 -0.053024933 -0.027148664 -0.11966446 -0.016985506 0.09412934 0.04403667
-0.09404068 -0.104116455 0.09468719 -0.053773984 -0.09942144 -0.051201925 0.06562476 0.015171513
-0.063900456 0.06196688 0.12470922 0.028120652 -0.09374167 -0.034169063 -0.12444328 0.10667157
-0.08180384 -0.0036026835 -0.073393896 -0.004403889 -0.08837509 -0.0987463 -0.09011486 0.05321932
-0.12499945 0.10415685 0.053900138 0.067023456 0.116936594 0.009261534 -0.031838894 -0.11525959
-0.07427409 -0.08542192 -0.11451487 -0.051810384 -0.002572298 -0.0038292557 0.019459829 -0.08593106
0.0742099 -0.11614908 0.042702675 -0.049709156 0.10690409 -0.065647736 0.11660765 -0.09098999
-0.08267844 -0.012825966 -0.08699381 0.012699127 -0.08934547 -0.013176307 -0.016010627 -0.04425618
0.020294905 -0.07101986 0.072941706 -0.03564486 -0.071252406 -0.036553606 0.045730606 -0.07135284
-0.11666979 -0.02827239 -0.08474834 0.12221308 -0.043878034 0.031578958 -0.058902502 0.0030753613
-0.027514294 -0.018227652 0.10355978 0.05255772 -0.06337544 0.064659745 -0.08047402 0.09618451
-0.11039825 -0.12181163 0.12266804 0.06828743 0.004395202 -0.09666191 0.07707617 -0.050714016
0.034985766 0.021822125 0.08032593 -0.029493049 0.12494238 -0.090686455 -0.056631148 0.12310313
-0.11031549 -0.03810002 0.039056256 0.049998775 -0.03990078 -0.0980822 0.10563789 -0.095936656
0.11898358 0.009356663 -0.07144332 0.017538026 -0.004202485 -0.104042605 0.10845274 -0.07300165
-0.02234511 -0.066958636 0.027504355 -0.083798096 0.107148305 -0.033171713 0.11664857 0.00054213405
-0.020123094 -0.112151936 0.07847281 -0.00080254674 -0.09939529 0.060381398 0.018996835 -0.068359464
-0.07513076 -0.025211781 0.058550656 0.040341318 -0.07723169 -0.08765668 0.10469736 0.024369463
0.060983747 -0.11780162 0.05900517 0.108502194 -0.0039102137 0.10138643 0.026483983 0.004878193
0.04364179 -0.043762878 -0.013255551 -0.024476215 0.032254055 0.012414783 -0.058343917 0.06402612
-0.07012206 0.07884708 0.012556508 -0.007999867 -0.008150458 0.027366236 0.0052397996 0.10907155
0.10012117 0.124280676 0.07595995 0.002651602 -0.04843849 -0.04640512 0.07583022 -0.009894818
-0.112112 0.0039265007 -0.029474989 -0.09045476 -0.09480439 -0.011415601 0.044734523 0.06744602
-0.08953677 -0.1057117 -0.095418274 -0.0050102323 -0.010213539 0.0583857 -0.101752385 0.11373994
00000000: f660 963d 1298 c23d 70d5 88bd 8c66 8bbd
00000010: 78e8 2d3d ca12 a9bd 8aef 99bd c0f7 803c
00000020: 0477 f13d 1669 b5bd 5002 b2bc e669 bcbd
00000030: 70e4 59bc b069 e23d e458 c4bd 0268 ac3d
00000040: 2e0c 8c3d 6836 863c 7e76 a83d bcef 7c3d
00000050: 185b 223d 18eb 903c 1e7b a6bd d221 f3bd
00000060: 348d ab3d 700d 3bbd 3698 e7bd 8c54 27bd
00000070: 4c3f b4bd 4cb1 d03d 7c17 bd3d 64de e3bd
00000080: 64f4 4f3d 00ef 50bd eeae f43d 3020 413c
00000090: 806c fbbb e07b 493d 0092 dbbd 5814 4bbd
000000a0: 6272 d33d da4e db3d 5841 b4bc 14a3 c03d
000000b0: 6e17 d2bd 8cbe c9bd 18ce cfbc 60a5 efbd
000000c0: 461d dc3d 484e 96bc 246b 88bd 64cb 1c3d
000000d0: 88f8 acbc 2894 963d 18e1 923d f0c5 bcbd
000000e0: 5004 e33c b0b1 cdbc 14c1 7b3d 001d b2bd
000000f0: 409d 043b 14a3 1a3d 685e cbbd 549b 1d3d
00000100: 2477 44bd 78fc 3d3d ac30 59bd e066 debc
00000110: a412 f5bd 3025 8bbc e2c6 c03d cc5f 343d
00000120: 6698 c0bd 023b d5bd 5ceb c13d 1c42 5cbd
00000130: 789d cbbd 1cb9 51bd 4666 863d f091 783c
00000140: 3ede 82bd fcd0 7d3d 8c67 ff3d 485d e63c
00000150: a2fb bfbd dcf4 0bbd 1edc febd a076 da3d
00000160: c688 a7bd 001b 6cbb 8a4f 96bd 804e 90bb
00000170: 00fe b4bd 803b cabd 248e b8bd 80fc 593d
00000180: b6ff ffbd 3050 d53d 64c6 5c3d 9843 893d
00000190: 747c ef3d b0bd 173c 8069 02bd 380d ecbd
000001a0: 041d 98bd b0f1 aebd c686 eabd 2037 54bd
000001b0: 0094 28bb 40f4 7abb 386a 9f3c a0fc afbd
000001c0: 5cfb 973d 92df edbd 00e9 2e3d d49b 4bbd
000001d0: 88f0 da3d 5272 86bd fecf ee3d f658 babd
000001e0: 5053 a9bd 0024 52bc d029 b2bd 0010 503c
000001f0: c2fa b6bd 70e1 57bc b828 83bc f845 35bd
00000200: 8041 a63c dc72 91bd 7662 953d 5800 12bd
00000210: c8ec 91bd 3cb9 15bd 0450 3b3d 7021 92bd
00000220: 92f0 eebd 809b e7bc 8a90 adbd da4a fa3d
00000230: 74b9 33bd f058 013d c043 71bd 008c 493b
00000240: a865 e1bc 2852 95bc 2617 d43d c446 573d
00000250: fcca 81bd 546c 843d 90cf a4bd 62fc c43d
00000260: 7a18 e2bd 6078 f9bd 6239 fb3d 48da 8b3d
00000270: a005 903b aef6 c5bd 1cda 9d3d 80b9 4fbd
00000280: 3c4d 0f3d 50c4 b23c ec81 a43d 689b f1bc
00000290: cae1 ff3d d2b9 b9bd 10f6 67bd 7e1d fc3d
000002a0: 16ed e1bd c40e 1cbd 74f9 1f3d 84cb 4c3d
000002b0: 006f 23bd 52df c8bd ae58 d83d 707a c4bd
000002c0: aaad f33d b04c 193c e050 92bd e8ab 8f3c
000002d0: 00b5 89bb 4a14 d5bd 781c de3d e481 95bd
000002e0: 180d b7bc 9c21 89bd d050 e13c 569e abbd
000002f0: 9270 db3d 10df 07bd 72e5 ee3d 001e 0e3a
00000300: 30d9 a4bc eaaf e5bd 5ab6 a03d 0062 52ba
00000310: c28f cbbd 7c52 773d 409f 9b3c 0c00 8cbd
00000320: 28de 99bd f088 cebc d0d2 6f3d f03c 253d
00000330: a62b 9ebd 5885 b3bd 926b d63d 78a2 c73c
00000340: 18ca 793d fa41 f1bd 68af 713d 6636 de3d
00000350: 4021 80bb b0a3 cf3d f0f4 d83c 40d9 9f3b
00000360: bcc1 323d b440 33bd d02d 59bc 5882 c8bc
00000370: d41c 043d 6067 4b3c 08fa 6ebd 2020 833d
00000380: 289c 8fbd 947a a13d d0b9 4d3c e011 03bc
00000390: 8089 05bc 282f e03c a0b2 ab3b e860 df3d
000003a0: 540c cd3d de86 fe3d e490 9b3d 80c6 2d3b
000003b0: 7067 46bd 4c13 3ebd e04c 9b3d e01d 22bc
000003c0: fa9a e5bd e0a9 803b 8875 f1bc 5840 b9bd
000003d0: ce28 c2bd 8008 3bbc 8c3b 373d 2421 8a3d
000003e0: 0e5f b7bd 607f d8bd a86a c3bd e02c a4bb
000003f0: b056 27bc d825 6f3d 8e63 d0bd 7cf0 e83d

gnn_layers.0.node_mlp.3.bias f4 [64]
-0.12494904 -0.018639043 -0.02858679 -0.054438055 0.051753744 0.08751388 0.01510036 -0.04786612
0.03935255 -0.05587423 -0.0077509433 0.07047123 -0.024422452 0.12043767 0.12374942 0.035866603
-0.011969909 -0.0299187 0.05106692 0.018861547 -0.10550338 -0.106592 0.0008723289 0.031391114
0.07788779 0.08880472 0.03972274 0.092551455 0.09211466 -0.091728374 0.118719935 -0.060088098
-0.07910925 0.016362265 -0.084324285 0.009339362 0.0043990463 0.03816144 -0.0713429 0.063551426
0.0928884 0.011618137 0.058580846 -0.07140893 0.053207785 -0.07307491 -0.04439439 -0.023586407
-0.0007767081 0.11301704 0.018434033 0.12370871 0.029484168 -0.0390272 -0.041330174 -0.012218162
-0.08202338 0.048496336 0.11177984 0.07184701 0.076440796 0.12138802 0.016148165 -0.0076050907
00000000: 48e5 ffbd e8b0 98bc d82e eabc 70fa 5ebd
00000010: bcfb 533d 7a3a b33d 8067 773c 440f 44bd
00000020: 2430 213d 60dc 64bd a0fb fdbb 3853 903d
00000030: 9811 c8bc 06a8 f63d 5670 fd3d dce8 123d
00000040: 701d 44bc 1018 f5bc 8c2b 513d 8883 9a3c
00000050: 2812 d8bd e84c dabd 00ad 643a f893 003d
00000060: a283 9f3d 40df b53d 50b4 223d 9e8b bd3d
00000070: 9ca6 bc3d 16dc bbbd 7023 f33d f01e 76bd
00000080: 0804 a2bd 280a 863c 36b2 acbd 2004 193c
00000090: e025 903b 2c4f 1c3d 3a1c 92bd 4027 823d
000000a0: 463c be3d 005a 3e3c 78f2 6f3d d83e 92bd
000000b0: 68f0 593d 4ca8 95bd e4d6 35bd 4838 c1bc
000000c0: 009c 4bba 7a75 e73d f802 973c fe5a fd3d
000000d0: c888 f13c fcda 1fbd d449 29bd b02e 48bc
000000e0: e0fb a7bd 18a4 463d d4ec e43d 8624 933d
000000f0: fe8c 9c3d 489a f83d 2849 843c 2034 f9bb

gnn_layers.0.edge_mlp.0.weight f4 [64, 76]
-0.08291399 -0.0824722 -0.12018292 -0.015325248 -0.0904497 -0.07130484 -0.03906602 -0.09322742
-0.09403137 -0.050599467 -0.03899341 0.022467613 -0.10700141 -0.20534246 0.15089232 0.16190155
0.014203569 0.14452198 -0.057677984 0.031458497 0.041233085 -0.060282126 0.10399115 -0.04039021
0.02504894 -0.13294168 -0.06622498 -0.16595201 -0.06153689 0.08512136 -0.040370274 0.005783637
0.027868126 0.09320085 -0.060933024 -0.16863896 -0.092992716 0.10391175 -0.10029089 -0.17845187
0.14477527 0.058432817 0.0025536737 0.03369929 0.12562354 -0.016951406 -0.16682518 0.10924928
0.11686755 0.0064472933 0.07629701 -0.07634856 0.017264247 0.15345117 -0.13275178 -0.2220448
0.03744331 0.054428972 0.041683286 0.012672928 0.09809407 0.029156374 -0.101085365 -0.060288057
0.22127211 -0.13674219 0.11757499 -0.11441479 0.017148435 -0.014663438 0.0006925834 -0.1475294
0.09446427 -0.014615182 -0.21757895 -0.16709466 0.020924127 0.026014492 -0.13768479 -0.037284546
-0.1637695 0.013203523 0.112454005 0.03919353 -0.09977374 -0.06570049 0.05526041 0.10069589
0.124405935 0.11840128 0.039446477 0.23802042 0.10620907 -0.036950763 0.027068062 0.05514175
0.029052557 -0.08319853 0.21633548 0.19158354 -0.07593679 -0.022065107 0.13182633 -0.008586021
0.15065491 -0.029023398 -0.06319028 -0.0702193 -0.01935946 -0.016773032 -0.104941994 0.16547817
0.03275509 0.08279747 0.1757095 -0.040448565 0.18375045 0.09233831 0.08676248 0.18110271
0.09682633 -0.036390197 0.020193592 -0.16351451 -0.13923706 -0.08619728 -0.042795114 0.045637906
-0.12489199 -0.031379577 0.036631025 -0.099311925 0.032573268 0.0320584 -0.0010506662 -0.087509654
-0.16226593 0.057981636 0.12177167 -0.0131886965 0.1885284 -0.33474714 -0.027142407 -0.0064146514
0.046540994 -0.0070535257 0.06498509 -0.18022987 0.042341143 -0.099622674 -0.1717403 -0.13869905
-0.02027316 -0.0031512142 -0.007729302 -0.12325491 0.10450063 -0.097721145 0.11268217 -0.24203084
-0.038306266 -0.10125456 -0.07588585 -0.15913491 0.087231375 0.041278686 -0.0708037 -0.04891351
0.04486515 -0.035805464 0.12450043 -0.15532747 -0.15948388 0.17625752 0.055215705 -0.13680276
0.12846184 -0.044804096 -0.030711012 -0.006476505 -0.00050509954 0.14453197 -0.06636312 0.037933584
0.055661075 -0.09168676 0.009577498 0.010054391 0.025360832 -0.11129219 0.12973703 0.108974576
0.11182377 0.09036279 -0.15735343 -0.13816802 -0.101587325 0.0030697624 0.12138461 0.017550653
-0.10651277 -0.1304232 -0.038225334 -0.11256229 0.050041243 -0.043502133 -0.07158355 -0.026731895
0.01857783 -0.117977984 0.026616368 -0.08506502 -0.15698142 0.011082402 -0.042713523 -0.12429358
0.13257222 -0.13405281 -0.063470006 0.07265087 -0.044830363 -0.05155921 0.11839158 0.11495052
0.23052368 0.06121893 0.37851548 0.14799762 -0.12876683 0.005592355 -0.028598167 -0.045501955
0.06024397 0.022988293 -0.043510493 0.13593177 -0.014612423 0.00046123425 -0.009063128 0.094335526
-0.065668374 -0.026725993 -0.00056176184 0.038169127 -0.13729699 -0.104120314 0.101312436 0.010627243
0.00927848 -0.09552752 0.14662741 -0.22202821 -0.18568628 -0.14785151 -0.16180669 0.17421506
00000000: cfce a9bd 2fe7 a8bd 7622 f6bd c016 7bbc
00000010: b13d b9bd 4608 92bd b103 20bd 04ee bebd
00000020: 8593 c0bd 6341 4fbd 8eb7 1fbd 000e b83c
00000030: 8e23 dbbd 4b45 52be 8483 1a3e 85c9 253e
00000040: 16b6 683c 92fd 133e c03f 6cbd a0da 003d
00000050: 06e4 283d 64ea 76bd 50f9 d43d 3470 25bd
00000060: 6f33 cd3c dd21 08be f6a0 87bd 53ef 29be
00000070: 1b0e 7cbd 1c54 ae3d 4d5b 25bd aa84 bd3b
00000080: b24b e43c 16e0 be3d e894 79bd b1af 2cbe
00000090: f772 bebd afcf d43d 4f65 cdbd 16bc 36be
000000a0: f83f 143e 4057 6f3d 895b 273b 4408 0a3d
000000b0: 75a3 003e addd 8abc 38d4 2abe 16be df3d
000000c0: 4158 ef3d d143 d33b 9b41 9c3d a25c 9cbd
000000d0: c06d 8d3c 4e22 1d3e 15f0 07be b65f 63be
000000e0: 285e 193d eaf0 5e3d 18bc 2a3d 1da2 4f3c
000000f0: 8be5 c83d 59d9 ee3c d805 cfbd 9cf0 76bd
00000100: 2895 623e 2506 0cbe 28cb f03d 4d52 eabd
00000110: e07a 8c3c eb3e 70bc 7c8e 353a f211 17be
00000120: 7c76 c13d 8474 6fbc 04cd 5ebe dd1a 2bbe
00000130: 1369 ab3c 581c d53c 3efd 0cbe aeb7 18bd
00000140: 31b3 27be 9753 583c 494e e63d 6589 203d
00000150: 2d56 ccbd fa8d 86bd bd58 623d a639 ce3d
00000160: 8ac8 fe3d 5f7c f23d a192 213d a0bb 733e
00000170: 2484 d93d af59 17bd d7bd dd3c 51dc 613d
00000180: a1ff ed3c fe63 aabd 0c87 5d3e 7a2e 443e
00000190: bf84 9bbd e2c1 b4bc 7bfd 063e 62ac 0cbc
000001a0: 4845 1a3e 7ac2 edbc e869 81bd 23cf 8fbd
000001b0: bb97 9ebc 9967 89bc d4eb d6bd 1c73 293e
000001c0: 342a 063d b891 a93d 31ed 333e 65ad 25bd
000001d0: 1429 3c3e de1b bd3d 87b0 b13d fd72 393e
000001e0: e24c c63d e30d 15bd 086d a53c 5970 27be
000001f0: 2994 0ebe 3388 b0bd ee49 2fbd d0ee 3a3d
00000200: 5fc7 ffbd df87 00bd 6a0a 163d 0d64 cbbd
00000210: 8c6b 053d ab4f 033d 82b6 89ba 4338 b3bd
00000220: 0a29 26be 277e 6d3d 6d63 f93d 6715 58bc
00000230: 970d 413e fa63 abbe c159 debc ff31 d2bb
00000240: c5a1 3e3d 4321 e7bb e716 853d 2e8e 38be
00000250: e86d 2d3d f906 ccbd b0dc 2fbe 2007 0ebe
00000260: e613 a6bc 9a84 4ebb 1646 fdbb 126d fcbd
00000270: 6d04 d63d 0622 c8bd e9c5 e63d efd6 77be
00000280: 08e7 1cbd 8d5e cfbd 0a6a 9bbd 43f4 22be
00000290: 5da6 b23d d713 293d 8801 91bd 8859 48bd
000002a0: 85c4 373d c0a8 12bd 15fa fe3d 2a0e 1fbe
000002b0: be4f 23be da7c 343e dd29 623d 0616 0cbe
000002c0: 808b 033e 8084 37bd a995 fbbc dd38 d4bb
000002d0: a868 04ba 3000 143e 63e9 87bd 3f60 1b3d
000002e0: defc 633d 45c6 bbbd f0ea 1c3c 2cbb 243c
000002f0: 85c1 cf3c 29ed e3bd c9d9 043e 102e df3d
00000300: dc03 e53d 2010 b93d 4221 21be eb7b 0dbe
00000310: 040d d0bd 112e 493b 7f98 f83d 63c6 8f3c
00000320: 5e23 dabd a98d 05be 2b92 1cbd 0f87 e6bd
00000330: 0cf8 4c3d 4b2f 32bd 659a 92bd d9fc dabc
00000340: 8930 983c 719e f1bd 920a da3c 9236 aebd
00000350: bdbf 20be f792 353c 60f4 2ebd a28d febd
00000360: 03c1 073e 2445 09be 90fc 81bd fbc9 943d
00000370: 0ba0 37bd c02f 53bd 4977 f23d 2e6b eb3d
00000380: 660e 6c3e b3c0 7a3d c8cc c13e b08c 173e
00000390: 74db 03be 1340 b73b b446 eabc 4260 3abd
000003a0: 62c2 763d f251 bc3c 0f38 32bd b331 0b3e
000003b0: f268 6fbc d0d1 f139 847d 14bc fc32 c13d
000003c0: 247d 86bd 78f0 dabc 3343 13ba 3b57 1c3d
000003d0: 9597 0cbe 083d d5bd e57c cf3d e31d 2e3c
000003e0: c404 183c efa3 c3bd 7f25 163e 5d5b 63be
000003f0: 8b24 3ebe 6366 17be a7b0 25be 6f65 323e

gnn_layers.0.edge_mlp.0.bias f4 [64]
0.08379876 0.09220766 -0.1482947 -0.02312703 -0.17112507 -0.0096072275 0.1449595 0.041863646
0.00070112 -0.11959225 0.031518962 -0.12579168 0.033623993 -0.09695986 -0.021600354 0.12636834
0.06971225 -0.2047669 -0.045120757 0.02756608 -0.1799519 -0.013349917 -0.0964764 -0.093654685
-0.1358847 -0.079240754 0.086492985 0.03698622 0.05143502 0.08324364 -0.12328586 0.047972616
0.19097456 -0.08909142 0.012813858 -0.09169574 0.0069572083 0.035353262 -0.048891854 0.10658213
-0.019906523 0.033500638 -0.12224587 0.04650048 0.010508143 0.08735413 0.048836645 0.021159733
-0.044415485 -0.0007688551 0.117711805 -0.025673516 -0.11079796 0.0019183205 0.011902063 0.07120994
-0.09180729 0.08845204 0.03266484 0.12179947 0.08388761 0.032420255 0.021847619 0.11197834
00000000: af9e ab3d 5fd7 bc3d 91da 17be e674 bdbc
00000010: 693b 2fbe a267 1dbc 4370 143e 3779 2b3d
00000020: 5ecb 373a c8ec f4bd 071a 013d 89cf 00be
00000030: 50b9 093d e492 c6bd 3af3 b0bc b466 013e
00000040: 4cc5 8e3d 6aae 51be 8bd0 38bd 43d2 e13c
00000050: 5045 38be 9cb9 5abc 6b95 c5bd 07ce bfbd
00000060: 5c25 0bbe fa48 a2bd 3c23 b13d dd7e 173d
00000070: 87ad 523d a47b aa3d 4c7d fcbd ef7e 443d
00000080: d68e 433e 9075 b6bd 37f1 513c faca bbbd
00000090: 4bf9 e33b 95ce 103d d342 48bd bb47 da3d
000000a0: 0113 a3bc f737 093d 0b5c fabd 4a77 3e3d
000000b0: 592a 2c3c b9e6 b23d ef08 483d 2d57 ad3c
000000c0: 03ed 35bd fe8c 49ba e312 f13d 4451 d2bc
000000d0: 0aea e2bd 2870 fb3a df00 433c 84d6 913d
000000e0: 7605 bcbd 5826 b53d 91cb 053d 0072 f93d
000000f0: 44cd ab3d 1acb 043d c7f9 b23c e654 e53d

gnn_layers.0.edge_mlp.1.weight f4 [64]
0.92866474 0.8846634 1.088551 0.9802509 0.85058033 0.8723662 1.0409379 1.0307496
0.89485997 0.90546894 1.003557 1.0062772 0.9416554 0.8706415 1.0668497 0.83207774
1.0498091 0.96650314 0.93748206 0.98113966 0.9830484 0.98544943 1.0106683 0.9862938
1.0268224 0.90046763 1.0387229 1.061021 0.8523826 0.9969526 1.0878851 1.0099721
1.0216011 0.8814407 1.0216452 0.8797745 0.79008234 0.9424148 0.9125887 0.9932475
0.923211 1.1119077 0.92668486 0.8769802 1.0079415 0.9135351 1.0375793 0.8790695
0.8462992 1.0139986 0.9056649 0.8243892 0.89563215 0.93354154 1.0438182 0.8199957
0.91825885 0.9943892 0.977575 0.97584707 0.9547437 1.1353563 0.9964036 0.9336192
00000000: f9bc 6d3f 4d79 623f a455 8b3f b9f1 7a3f
00000010: a2bf 593f 6453 5f3f 743d 853f 9aef 833f
00000020: 8b15 653f d0cc 673f 8e74 803f b1cd 803f
00000030: 5410 713f 5de2 5e3f 888e 883f 0c03 553f
00000040: 2560 863f c06c 773f d3fe 6f3f f82b 7b3f
00000050: 0fa9 7b3f 6a46 7c3f 945d 813f c07d 7c3f
00000060: eb6e 833f 0c85 663f dff4 843f 89cf 873f
00000070: bf35 5a3f 4938 7f3f d23f 8b3f c446 813f
00000080: d3c3 823f 19a6 613f 45c5 823f e738 613f
00000090: d642 4a3f 1942 713f 6a9f 693f 7845 7e3f
000000a0: 8e57 6c3f fe52 8e3f 383b 6d3f c681 603f
000000b0: 3a04 813f 70dd 693f 66cf 843f b30a 613f
000000c0: 10a7 583f b5ca 813f a8d9 673f 2c0b 533f
000000d0: 2648 653f 94fc 6e3f d69b 853f 3deb 513f
000000e0: 0313 6b3f 4a90 7e3f 5b42 7a3f 1dd1 793f
000000f0: 156a 743f 5b53 913f 4e14 7f3f ab01 6f3f

gnn_layers.0.edge_mlp.1.bias f4 [64]
-0.01078631 -0.30234346 -0.020664712 0.014723779 0.05865473 -0.1319959 -0.1515893 -0.0870444
-0.21756198 -0.032716412 -0.21918005 0.057806935 -0.1484651 -0.24413395 -0.17487533 -0.036725797
-0.3024761 -0.18602972 -0.14870365 -0.026452687 -0.095142856 -0.077841446 0.061297126 0.0080378
-0.008213061 0.027912451 -0.11723528 0.057227395 -0.121410616 -0.01955643 0.11467886 -0.13200082
-0.103265315 -0.022644661 -0.111324124 -0.070299685 -0.21278936 -0.036605038 -0.124831446 -0.04659325
0.034438092 -0.16134116 0.012031014 -0.22442691 0.1644031 0.0048227673 -0.047563545 -0.07634594
-0.07275533 -0.10331247 -0.0937219 -0.12953795 -0.14662619 -0.047931887 -0.08333311 -0.09787446
0.018305425 -0.047595304 -0.06818217 -0.054692633 -0.04995337 -0.25999433 -0.084457666 -0.054445244
00000000: 10b9 30bc c3cc 9abe 0b49 a9bc 013c 713c
00000010: f13f 703d ef29 07be 3a3a 1bbe 5644 b2bd
00000020: 91c8 5ebe a501 06bd bc70 60be f7c6 6c3d
00000030: 3c07 18be 40fe 79be 8512 33be ca6d 16bd
00000040: 26de 9abe 937e 3ebe c545 18be 4eb3 d8bc
00000050: 42da c2bd 566b 9fbd b212 7b3d fab0 033c
00000060: 1390 06bc a7a8 e43c 0d19 f0bd 4667 6a3d
00000070: 21a6 f8bd ce34 a0bc c0dc ea3d 392b 07be
00000080: c47c d3bd 4c81 b9bc e7fd e3bd 48f9 8fbd
00000090: 74e5 59be 2aef 15bd a1a7 ffbd 90d8 3ebd
000000a0: f50e 0d3d 9e36 25be bb1d 453c 2bd0 65be
000000b0: 4959 283e 4e08 9e3b fed1 42bd 435b 9cbd
000000c0: bf00 95bd 7d95 d3bd 44f1 bfbd 99a5 04be
000000d0: 2d25 16be 3a54 44bd 8daa aabd 6872 c8bd
000000e0: 42f5 953c 4bf3 42bd 18a3 8bbd 6205 60bd
000000f0: e89b 4cbd fa1d 85be 24f8 acbd fa01 5fbd

gnn_layers.0.edge_mlp.1.running_mean f4 [64]
0.2214302 0.45009103 0.26153708 -0.026397247 -0.015430949 -0.07535998 0.25908607 0.0020783457
0.16152844 -0.22466268 0.1439699 0.09822669 -0.0078873355 -0.028315932 -0.17236874 0.28000346
0.09982783 -0.31796703 -0.30723643 0.078958966 -0.09124705 0.21576233 -0.0069836457 -0.2351839
-0.1349334 0.06524768 -0.15984893 0.10498294 -0.3355686 0.35889637 0.072626576 -0.06934021
0.085248694 -0.23039548 0.40712294 -0.4097705 0.23544493 0.22156155 0.036601257 0.004425516
-0.029411625 -0.21566725 0.09833019 -0.049818296 0.20012094 0.40690893 -0.4769582 0.18203141
0.16102087 0.049872935 0.24518906 -0.21914738 -0.1762122 -0.15531227 0.29536894 -0.35596728
-0.24446814 0.21272102 0.016919529 0.35737595 0.39332604 -0.46844536 0.18016969 0.10556737
00000000: 99be 623e 5572 e63e 30e8 853e 0a3f d8bc
00000010: 17d2 7cbc 5556 9abd eea6 843e db34 083b
00000020: b667 253e f90d 66be d86c 133e 132b c93d
00000030: e239 01bc d0f6 e7bc 6e81 30be 9d5c 8f3e
00000040: 8972 cc3d 93cc a2be 184e 9dbe 3db5 a13d
00000050: bcdf babd cdf0 5c3e 11d7 e4bb 0cd4 70be
00000060: fb2b 0abe 93a0 853d 70af 23be 4c01 d73d
00000070: a6cf abbe 44c1 b73e 3ebd 943d 3d02 8ebd
00000080: de96 ae3d cbec 6bbe 6b72 d03e 70cd d1be
00000090: 7a18 713e 08e1 623e 33eb 153d eb03 913b
000000a0: a6f0 f0bc e0d7 5cbe 5761 c93d 450e 4cbd
000000b0: 81ec 4c3e 5e56 d03e dd33 f4be 7166 3a3e
000000c0: a8e2 243e 9047 4c3d d712 7b3e 2c68 60be
000000d0: f970 34be 2e0a 1fbe 993a 973e 5841 b6be
000000e0: db55 7abe 8ad3 593e d39a 8a3c fbf9 b63e
000000f0: 0862 c93e 12d8 efbe 677e 383e b533 d83d

gnn_layers.0.edge_mlp.1.running_var f4 [64]
0.075116836 0.079768084 0.091076516 0.054193392 0.09227023 0.053194683 0.056950234 0.073436104
0.065035194 0.08064091 0.05972443 0.046895448 0.0505806 0.06848119 0.0832559 0.09113743
0.025154233 0.034837227 0.040985398 0.05589074 0.06307762 0.079324566 0.06341837 0.07840043
0.04062866 0.086637 0.080794 0.11280058 0.10039269 0.10974122 0.062044438 0.064691804
0.09371052 0.08410017 0.09409037 0.088528775 0.05535891 0.05475477 0.084169105 0.07591327
0.10396891 0.050149497 0.09654937 0.060844727 0.11468553 0.08981602 0.056382123 0.090720415
0.06546094 0.070934564 0.052326445 0.061486416 0.042533692 0.04620919 0.054495234 0.06746319
0.093144245 0.065731555 0.081760705 0.07637023 0.09459239 0.08684371 0.08199332 0.061653413
00000000: dbd6 993d 735d a33d 5386 ba3d e4f9 5d3d
00000010: 2df8 bc3d abe2 593d a644 693d ab65 963d
00000020: 2c31 853d 1027 a53d 9ba1 743d 7115 403d
00000030: 9a2d 4f3d de3f 8c3d 1282 aa3d 43a6 ba3d
00000040: 4010 ce3c 7bb1 0e3d 4ee0 273d b0ed 643d
00000050: d72e 813d eb74 a23d 7ee1 813d 6890 a03d
00000060: 3d6a 263d bd6e b13d 5377 a53d fe03 e73d
00000070: af9a cd3d 01c0 e03d 4f22 7e3d 237d 843d
00000080: 4deb bf3d b63c ac3d 74b2 c03d 934e b53d
00000090: 06c0 623d 8a46 603d da60 ac3d 6b78 9b3d
000000a0: a7ed d43d 8f69 4d3d adbb c53d 5238 793d
000000b0: 3fe0 ea3d 76f1 b73d f1f0 663d a0cb b93d
000000c0: 6310 863d 2446 913d 4154 563d 2ed9 7b3d
000000d0: cf37 2e3d d945 3d3d 6536 5f3d 242a 8a3d
000000e0: 69c2 be3d 449e 863d 2872 a73d ff67 9c3d
000000f0: a8b9 c13d 1ddb b13d 1dec a73d 4a88 7c3d

gnn_layers.0.edge_mlp.3.weight f4 [64, 64]
0.05694885 0.10303053 0.058974724 0.14954826 0.08205521 -0.046496417 -0.031862337 -0.08681357
0.17269519 -0.10752714 0.12479267 -0.04456068 -0.16241275 -0.0130786905 -0.031835668 0.0034819164
0.06150821 -0.0026788206 0.14079593 -0.08719651 0.053721916 -0.034221876 -0.113489695 0.12397151
-0.19796617 0.05713394 -0.038313672 -0.057769198 0.011910964 0.057440016 -0.025385028 0.05156263
0.12910868 0.035432935 0.05069827 0.030079566 -0.08973867 -0.14408116 -0.097774364 -0.03635737
0.053801235 -0.062347434 -0.115212575 -0.076991044 0.15902849 -0.0047203037 -0.28664646 0.115682326
0.0016433961 -0.05809528 -0.072572246 -0.10495125 0.01678165 0.09330272 -0.14042713 -0.067148134
0.088204965 0.12686537 0.056756124 -0.24589017 0.13859029 -0.19549148 -0.08696327 -0.122218974
0.038842153 0.019402806 0.086341314 0.07966002 -0.10502269 0.10010902 0.17894734 0.08130109
-0.055617113 -0.09158901 -0.06484049 0.06351951 0.027489822 -0.1245358 0.10022951 0.12742837
0.10174453 0.05792723 0.053209677 0.19831434 0.00047764753 -0.14221941 -0.099864826 0.065486096
-0.0727251 -0.10525574 -0.07417072 -0.08990613 0.032968238 0.13804865 -0.04153619 -0.0356296
-0.052109517 -0.107866816 -0.0051210294 -0.0025836767 0.1082541 -0.03580386 0.06418189 -0.019191556
-0.06675518 0.06774264 0.09636189 0.087280355 -0.066762984 -0.010442292 0.005025677 -0.08517654
0.03158842 -0.042536322 -0.024796588 0.07933629 0.051128898 0.057304423 0.013623398 0.19381133
0.08322416 -0.01800296 -0.0219219 0.122079305 0.087934375 0.20742537 -0.07544679 -0.12607162
-0.11874043 0.06364118 0.04764848 -0.07414365 -0.07130246 -0.17920817 0.16407138 0.11236332
-0.076898225 0.051156063 -0.1708091 0.019726891 -0.10745813 1.9661325e-05 -0.08734313 -0.07890681
0.12000333 0.0073026074 -0.05559047 0.01497464 -0.018710135 -0.006962078 0.13237093 -0.056853842
-0.11466691 -0.120547995 0.18613425 -0.102621764 -0.07228477 -0.009171282 0.04422077 -0.07415979
-0.0036158739 0.004545818 -0.08084539 0.15165369 0.12509507 0.18892178 -0.060011353 0.0011590321
-0.08116962 0.13906816 0.08574914 -0.07577983 -0.07065713 0.060364883 -0.011434854 0.015987633
-0.11408491 -0.007382733 0.032958202 -0.17544115 0.075800546 -0.060882855 -0.0629117 -0.0026173682
0.1622305 0.05255666 -0.10642006 0.0042767827 0.054659702 -0.050968807 0.07958687 -0.018752372
0.1114164 0.101040296 0.15741256 0.031691164 -0.068770304 0.07510954 0.057977423 -0.07934245
0.06502948 0.22497277 -0.19915783 0.01840699 0.03526102 -0.011411189 -0.15627347 0.02722738
-0.036871515 -0.18590508 -0.013078326 0.05769032 -0.0029736347 0.08688176 -0.18817776 -0.06179619
0.025027467 -0.083663546 -0.075801976 0.017083982 0.07310998 -0.0520243 -0.027379883 -0.1798289
-0.08771754 0.13292332 0.13532832 0.013064603 0.036413044 0.06448868 -0.12179393 -0.052958645
-0.01022727 -0.0478257 0.14551775 0.12630555 -0.08151684 0.04787891 0.124287575 0.13633327
-0.002943636 -0.0645896 -0.17194156 -0.0029961944 -0.093624175 -0.09346936 -0.006560282 -0.15580574
0.043791253 -0.015082913 0.07121385 0.13850075 -0.06096451 0.19106539 0.15247422 0.09182761
00000000: 3343 693d ac01 d33d 7b8f 713d 2e23 193e
00000010: 900c a83d 0773 3ebd 1582 02bd 50cb b1bd
00000020: 02d7 303e 3037 dcbd 4d93 ff3d 4285 36bd
00000030: 874f 26be 0148 56bc 1e66 02bd dd30 643b
00000040: 08f0 7b3d 278f 2fbb cf2c 103e 1594 b2bd
00000050: 830b 5c3d 3d2c 0cbd 496d e8bd c6e4 fd3d
00000060: a5b7 4abe 4705 6a3d ccee 1cbd 659f 6cbd
00000070: 3426 433c 3946 6b3d 43f4 cfbc 5633 533d
00000080: 1135 043e 2022 113d fda8 4f3d 6c69 f63c
00000090: e8c8 b7bd 038a 13be ed3d c8bd 77eb 14bd
000000a0: af5e 5c3d 0660 7fbd 92f4 ebbd 7bad 9dbd
000000b0: 5dd8 223e c7ac 9abb 53c3 92be dbea ec3d
000000c0: 3967 d73a 51f5 6dbd c2a0 94bd aef0 d6bd
000000d0: ac79 893c 7f15 bf3d 21cc 0fbe f684 89bd
000000e0: cea4 b43d ffe8 013e 1c79 683d a2ca 7bbe
000000f0: 9dea 0d3e eb2e 48be cd19 b2bd f14d fabd
00000100: f318 1f3d a2f2 9e3c b7d3 b03d cb24 a33d
00000110: 2316 d7bd f505 cd3d f93d 373e 3081 a63d
00000120: c5ce 63bd 0593 bbbd 17cb 84bd 8416 823d
00000130: 5632 e13c a00c ffbd 2145 cd3d 957c 023e
00000140: 705f d03d 1a45 6d3d 64f2 593d ea12 4b3e
00000150: c46c fa39 f7a1 11be ee85 ccbd 931d 863d
00000160: e6f0 94bd 5290 d7bd d2e6 97bd b520 b8bd
00000170: b409 073d a05c 0d3e da21 2abd 58f0 11bd
00000180: ca70 55bd 47e9 dcbd 4fce a7bb e752 29bb
00000190: 53b4 dd3d 11a7 12bd cb71 833d 9c37 9dbc
000001a0: f1b6 88bd a7bc 8a3d 6259 c53d 0bc0 b23d
000001b0: 08bb 88bd 2616 2bbc 6fae a43b 0a71 aebd
000001c0: dc62 013d 913a 2ebd 3722 cbbc 117b a23d
000001d0: 896c 513d 0bb8 6a3d ac34 5f3c 7a76 463e
000001e0: 6e71 aa3d f27a 93bc 8e95 b3bc b704 fa3d
000001f0: f016 b43d 5167 543e d983 9abd eb18 01be
00000200: 2f2e f3bd 4f56 823d 0d2b 433d a0d8 97bd
00000210: 0607 92bd 5982 37be 5402 283e be1e e63d
00000220: d17c 9dbd 0589 513d 95e8 2ebe 4a9a a13c
00000230: 0213 dcbd 60ee a437 f4e0 b2bd e599 a1bd
00000240: 4ec4 f53d b64a ef3b d5b2 63bd 3158 753c
00000250: ff45 99bc 2522 e4bb 3f8c 073e 93df 68bd
00000260: 7cd6 eabd dee1 f6bd fa99 3e3e 5c2b d2bd
00000270: 0a0a 94bd 2543 16bc d720 353d 17e1 97bd
00000280: 4cf8 6cbb 16f5 943b 4592 a5bd 1b4b 1b3e
00000290: ec18 003e b674 413e 77ce 75bd aaea 973a
000002a0: 423c a6bd e267 0e3e 3f9d af3d 7532 9bbd
000002b0: afb4 90bd 2b41 773d 4159 3bbc 7ff8 823c
000002c0: 59a5 e9bd daea f1bb 2eff 063d d8a6 33be
000002d0: 513d 9b3d 4d60 79bd d9d7 80bd 2788 2bbb
000002e0: c11f 263e a745 573d c3f2 d9bd 4124 8c3b
000002f0: dae2 5f3d abc4 50bd 71fe a23d 939e 99bc
00000300: 482e e43d 37ee ce3d c230 213e 98ce 013d
00000310: 72d7 8cbd 08d3 993d bc79 6d3d 4b7e a2bd
00000320: 2d2e 853d 435f 663e 08f0 4bbe 42ca 963c
00000330: dc6d 103d fff5 3abc 2706 20be f40b df3c
00000340: 9606 17bd e75d 3ebe 7a46 56bc af4c 6c3d
00000350: 50e1 42bb 10ef b13d acb1 40be 001e 7dbd
00000360: 6706 cd3c cb57 abbd 113e 9bbd b5f3 8b3c
00000370: afba 953d 6f17 55bd c74b e0bc 1125 38be
00000380: 41a5 b3bd 0d1d 083e 8293 0a3e eb0c 563c
00000390: d825 153d a412 843d 196f f9bd 2aeb 58bd
000003a0: 4890 27bc e2e4 43bd 9b02 153e 3e56 013e
000003b0: 4df2 a6bd ad1c 443d 7c8a fe3d f39a 0b3e
000003c0: 04ea 40bb 8d47 84bd 7311 30be cd5b 44bb
000003d0: 08be bfbd dd6c bfbd a2f7 d6bb 8a8b 1fbe
000003e0: 755e 333d 531e 77bc 91d8 913d 24d3 0d3e
000003f0: ecb5 79bd a5a6 433e 3422 1c3e 1d10 bc3d

gnn_layers.0.edge_mlp.3.bias f4 [64]
0.011548085 -0.00035682842 0.057044946 0.15583068 0.24090873 0.20096111 0.15433246 0.10913259
0.08554065 -0.19356725 0.16986606 0.28068542 -0.20036575 -0.03407345 -0.14707716 0.1787053
-0.2985269 0.032661103 -0.030002927 0.28437173 0.008614649 0.005629441 0.053594805 0.08264178
0.07072528 0.03409851 0.23956738 -0.1258933 -0.025046077 0.052998543 0.1960801 -0.053892378
0.165421 0.05032018 -0.1276824 0.25750926 0.105827555 0.12778209 -0.1534716 0.047938455
-0.19284259 -0.2353866 0.06199494 0.08490404 0.12803005 -0.12651466 0.28165945 -0.090729564
0.14050098 -0.122657165 0.03044006 -0.06393233 0.080298185 -0.17173548 -0.07436062 -0.07306484
-0.31109482 -0.0084955795 -0.10782601 0.19063741 -0.238301 -0.24180582 0.04313985 0.087666884
00000000: 2e34 3d3c b314 bbb9 f6a7 693d 1492 1f3e
00000010: c7b0 763e c0c8 4d3e 5409 1e3e e880 df3d
00000020: f02f af3d 7e36 46be 5ef1 2d3e 00b6 8f3e
00000030: ae2c 4dbe 9a90 0bbd 659b 16be 86fe 363e
00000040: 85d8 98be a6c7 053d b3c8 f5bc 2c99 913e
00000050: 7524 0d3c 2c77 b83b 3a86 5b3d 1840 a93d
00000060: 6ad8 903d e1aa 0b3d 2751 753e 2cea 00be
00000070: 6e2d cdbc 0015 593d 39c9 483e 41be 5cbd
00000080: 1f64 293e 881c 4e3d 2dbf 02be 41d8 833e
00000090: 1ebc d83d 4fd9 023e a927 1dbe 1d5b 443d
000000a0: 8778 45be 2f09 71be 68ee 7d3d 2be2 ad3d
000000b0: 4f1a 033e 0f8d 01be ab35 903e 6cd0 b9bd
000000c0: 7ddf 0f3e ae33 fbbd 6f5d f93c f4ee 82bd
000000d0: 6073 a43d 6ddb 2fbe 614a 98bd 05a3 95bd
000000e0: d247 9fbe 0b31 0bbc e2d3 dcbd 7436 433e
000000f0: 2d05 74be f29b 77be 69b3 303d b28a b33d
